packages/apps/composer-extension/.profiles/chromium/Default/optimization_guide_prediction_model_downloads/91181042-73ae-48ba-9ec0-69d9df7b3f82/model.tflite (tflite, 409956 bytes, 166 tensors)

context_transformer_0/bottleneck_input/norm/add f4 [32]
-0.013196245 0.05241648 0.0003154845 -0.0432259 -0.0057062805 -0.052392818 -0.00286984 0.029981773
0.062411368 -0.005848796 0.038710542 -0.043261148 0.0074999165 0.25249374 0.0069084726 0.038150586
0.0061790813 -0.013848443 0.02537522 -0.035296313 0.13593496 -0.046329044 0.0052635623 0.073073804
0.090380244 -0.019706473 -0.060226645 0.05935096 0.021865867 -0.015311939 -0.09272748 -0.11855361
00000000: 1035 58bc aab2 563d 9d67 a539 a40d 31bd
00000010: c0fb babb da99 56bd ed13 3cbb 569c f53c
00000020: 10a3 7f3d 42a7 bfbb f28e 1e3d 9a32 31bd
00000030: dcc1 f53b dc46 813e 7860 e23b ca43 1c3d
00000040: e479 ca3b 94e4 62bc b2df cf3c de92 10bd
00000050: 8932 0b3e 86c3 3dbd f679 ac3b b8a7 953d
00000060: 4719 b93d 786f a1bc 37b0 76bd fe19 733d
00000070: 0c20 b33c edde 7abc e8e7 bdbd 3ccc f2bd

context_transformer_1/bottleneck_input/norm/add f4 [32]
-0.1846887 0.107705116 0.06011592 0.1468412 0.01197616 0.110206574 -0.18108833 -0.020977732
0.12838122 0.1206812 0.064581834 -0.0817331 -0.1050428 0.034298368 -0.08435363 0.060136884
-0.16911383 -0.08846964 0.1172629 0.046781033 -0.10893506 -0.08615499 0.12332076 0.17147177
-0.011773628 -0.048264008 0.022793625 0.16485965 -0.0048754895 -0.07678124 0.06182804 0.17685175
00000000: 091f 3dbe 8094 dc3d 1c3c 763d 8a5d 163e
00000010: a837 443c fcb3 e13d 386f 39be 7ed9 abbc
00000020: 5e76 033e b427 f73d 7b43 843d af63 a7bd
00000030: ae20 d7bd 727c 0c3d 99c1 acbd 1852 763d
00000040: 2d2c 2dbe 922f b5bd 8827 f03d 789d 3f3d
00000050: 5819 dfbd 0772 b0bd 988f fc3d 4c96 2f3e
00000060: 2de6 40bc 7bb0 45bd b2b9 ba3c f8d0 283e
00000070: 92c2 9fbb 7c3f 9dbd 663f 7d3d a018 353e

mention_transformer_0/bottleneck_input/norm/add f4 [32]
-0.02433095 -0.011791825 -0.027659584 0.21253514 0.20934197 0.1840271 0.05984168 -0.12019768
-0.07802567 0.105319515 -0.039598748 0.07759777 -0.07080805 0.023430109 -0.12284152 -0.071611896
-0.08032852 0.049064733 -0.09122148 -0.06528902 -0.01353813 0.2023454 -0.061855648 0.10663619
0.12363673 -0.08036786 0.14224535 -0.008124732 0.09263913 -0.2738189 -0.038892105 -0.13555533
00000000: b351 c7bc 8032 41bc 5a96 e2bc d0a2 593e
00000010: be5d 563e 9a71 3c3e 8d1c 753d 342a f6bd
00000020: eccb 9fbd c2b1 d73d 4c32 22bd 94eb 9e3d
00000030: d003 91bd 80f0 bf3c 5694 fbbd 42a9 92bd
00000040: 4783 a4bd 1af8 483d 54d2 babd 40b6 85bd
00000050: 08cf 5dbc a233 4f3e 595c 7dbd 1364 da3d
00000060: 4135 fd3d e897 a4bd c4a8 113e 991d 05bc
00000070: 96b9 bd3d fe31 8cbe 544d 1fbd 04cf 0abe

mention_transformer_1/bottleneck_input/norm/add f4 [32]
-0.32745275 -0.15332702 -0.16521016 0.03547688 -0.025618006 0.06556772 -0.38026246 0.118926965
0.16128972 -0.024011059 0.294169 0.26140442 0.40527603 -0.03481286 0.07232068 -0.38624942
-0.24220797 0.089362144 0.2600619 0.083695255 -0.21090825 0.117006 -0.16383897 -0.121498466
0.17684135 0.045791026 0.3037586 0.14662486 -0.03627887 0.0348847 0.10060059 -0.020814136
00000000: e3a7 a7be c201 1dbe da2c 29be 3450 113d
00000010: dadc d1bc 5e48 863d c3b1 c2be fb8f f33d
00000020: 2229 253e d7b2 c4bc 529d 963e cdd6 853e
00000030: 5780 cf3e ee97 0ebd dd1c 943d 7cc2 c5be
00000040: 5e05 78be 8003 b73d d526 853e 6b68 ab3d
00000050: 55f8 57be d7a0 ef3d 67c5 27be 30d4 f8bd
00000060: e615 353e 5f8f 3b3d 3f86 9b3e d424 163e
00000070: 2799 14bd 42e3 0e3d af07 ce3d 6882 aabc

context_transformer_0/attention/value/add;context_transformer_0/attention/value/einsum/Einsum;context_transformer_0/attention/value/add/ReadVariableOp/resource f4 [32]
-0.032229066 0.024828952 0.0700142 0.017732713 0.035119697 -0.058031686 -0.009194796 0.045531828
0.07328895 -0.00315198 -0.034087073 -0.002350853 0.039590765 -0.058749624 0.01037705 -0.014033496
0.031236956 0.027659852 0.05852793 -0.00048976013 0.013722118 -0.017642274 -0.08043236 0.053748082
0.009668825 0.014478009 0.052701473 0.07954504 -0.022300662 -0.027244037 0.020204492 -0.0088806925
00000000: a002 04bd 1666 cb3c 9b63 8f3d 3244 913c
00000010: acd9 0f3d a2b2 6dbd c5a5 16bc 957f 3a3d
00000020: 8418 963d 7391 4ebb e39e 0bbd c510 1abb
00000030: ed29 223d 72a3 70bd 8104 2a3c c0ec 65bc
00000040: a5e4 ff3c ea96 e23c fcba 6f3d 3f63 00ba
00000050: bcd2 603c 8886 90bc b9b9 a4bd f326 5c3d
00000060: fe69 1e3c 2c35 6d3c 80dd 573d 83e8 a23d
00000070: e1af b6bc e32e dfbc e483 a53c 5380 11bc

context_transformer_0/bottleneck_input/norm/mul f4 [32, 32]
-0.16965362 -0.12999824 0.29725263 -0.1042198 0.118035905 0.33232737 0.19034106 -0.28668207
-0.22367516 -0.07250115 -0.28570798 -0.16362639 -0.16005468 0.047111135 -0.07635641 -0.042848274
-0.30489886 -0.22288193 0.01683767 0.5879215 0.049363256 -0.04555114 0.08281306 -0.031609785
0.19858412 0.23579893 -0.052954175 -0.14679572 -0.3071684 0.10245008 0.32273847 0.32694903
-0.043026526 -0.16617568 0.105071366 -0.2853221 -0.05524172 -0.07898839 -0.038868003 -0.097200625
0.13196617 -0.21039675 0.1410647 -0.23469746 0.090204276 -0.096826375 0.012486358 -0.107237555
0.11090962 -0.06285747 0.15117909 0.022193596 -0.049160246 0.06222609 -0.25658354 -0.08357079
-0.26417798 -0.15773784 0.17081352 -0.025735706 0.12131818 -0.024162758 -0.16152366 -0.20027976
-0.33311397 0.22730531 0.061728608 0.21303281 -0.15213396 -0.22669971 -0.562726 -0.23756231
-0.13855018 0.4862255 0.08324561 0.099897936 -0.07571511 -0.17573781 -0.14548819 -0.05881923
-0.18193838 -0.25826794 0.008935777 0.15611605 0.03026387 0.106341116 -0.069363154 -0.17974915
0.038215093 0.16236551 -0.19283469 0.1420629 -0.14439829 -0.3803686 -0.030199222 -0.07920775
-0.14777623 -0.16111735 0.19685066 -0.2702559 -0.04633395 -0.22719614 -0.027953183 -0.07390984
-0.16350842 0.15016082 -0.02699296 -0.17183872 0.12723136 0.030331295 0.33800516 -0.16384844
-0.42374912 -0.00015440752 -0.009995627 -0.22398402 -0.08408472 0.12333557 -0.178049 -0.44323564
-0.36266688 0.2991819 0.39715907 0.95308673 0.19964115 0.42979172 -0.099653244 0.18247318
0.22033462 0.10261144 -0.2054427 0.08569348 0.15170032 0.75917315 0.04412339 -0.01787839
0.037704345 0.3910357 -0.19403593 0.11171521 0.16966452 -0.101108946 0.049661167 0.18425435
-0.007176583 0.19128793 0.20971687 0.013785093 0.29288262 0.21475175 0.06797066 0.036369003
0.4669085 0.21316765 -0.30265132 -0.1945513 0.14637229 -0.19546346 0.3527814 0.020942122
0.056353074 -0.114984974 -0.040210057 -0.06811166 -0.40868872 -0.08101463 0.15697508 0.2450373
0.04017228 -0.07738708 0.073427565 0.04199346 -0.24908395 0.050212618 -0.054446954 0.3080412
-0.060484514 -0.28119272 -0.12941417 -0.061168626 -0.22102775 0.17635998 0.26917642 0.25249082
-0.017018754 0.3416828 -0.074496545 -0.03610628 -0.0042135776 -0.17257343 0.30408487 -0.1674016
0.19442339 0.15821327 0.122506894 0.33753797 0.42547956 0.14477815 -0.07900002 -0.055844225
0.06696017 0.013199558 0.19467445 0.15420887 -0.0075059086 0.06384635 0.09148669 -0.011195893
0.20594065 0.06654883 0.15296917 0.044460963 0.079849504 -0.18398625 0.0916353 0.14171536
0.17754316 -0.09333204 0.067867205 0.05734759 0.013561651 0.00923179 -0.02457362 0.035769857
-0.31368217 0.35296822 -0.02558521 -0.023620563 -0.32805964 0.024340155 0.08618695 0.2860361
-0.11658618 0.31151137 -0.09820036 -0.010765574 -0.1369795 0.021508051 0.068900846 -0.036411755
-0.280378 0.1846 0.015429305 -0.1474158 0.015273205 0.21177603 0.035243254 -0.019344253
-0.36839348 -0.5191636 -0.08576058 0.006634721 -0.04201463 0.3753941 0.45328066 0.029231027
00000000: aeb9 2dbe 421e 05be 7f31 983e 3171 d5bd
00000010: cfbc f13d d026 aa3e c4e8 423e fec7 92be
00000020: 1a0b 65be 7c7b 94bd 5148 92be ad8d 27be
00000030: 60e5 23be 9bf7 403d c060 9cbd ac81 2fbd
00000040: b41b 9cbe 293b 64be 27ef 893c 0682 163f
00000050: 2031 4a3d d593 3abd e599 a93d 4379 01bd
00000060: a359 4b3e 4675 713e 7ae6 58bd 9e51 16be
00000070: 2d45 9dbe 59d1 d13d fa3d a53e dd65 a73e
00000080: 953c 30bd f529 2abe a82f d73d bd15 92be
00000090: 2445 62bd aac4 a1bd 0e34 1fbd 1f11 c7bd
000000a0: 2422 073e 3f72 57be 4473 103e 8854 70be
000000b0: 05bd b83d e84c c6bd 9593 4c3c 5d9f dbbd
000000c0: 9524 e33d 6bbb 80bd b1ce 1a3e 58cf b53c
000000d0: 415c 49bd c9e0 7e3d eb5e 83be 2a27 abbd
000000e0: 5642 87be 0786 21be bde9 2e3e b0d3 d2bc
000000f0: aa75 f83d faf0 c5bc 7566 25be 2316 4dbe
00000100: ea8d aabe b9c2 683e 23d7 7c3d 4625 5a3e
00000110: 01c9 1bbe f823 68be d00e 10bf 8943 73be
00000120: 19e0 0dbe 8cf2 f83e ad7c aa3d 4a97 cc3d
00000130: 8610 9bbd 9df4 33be dbfa 14be 6fec 70bd
00000140: 0e4e 3abe b23b 84be 5d67 123c e3dc 1f3e
00000150: efeb f73c 5fc9 d93d 450e 8ebd 2910 38be
00000160: 6e87 1c3d 2543 263e 7576 45be f078 113e
00000170: 25dd 13be acbf c2be 5c64 f7bc ac37 a2bd
00000180: a752 17be f2fb 24be 3893 493e fb5e 8abe
00000190: abc8 3dbd 1ba6 68be 13fe e4bc 0b5e 97bd
000001a0: c06e 27be c2c3 193e 5720 ddbc 7df6 2fbe
000001b0: f048 023e 5679 f83c 030f ad3e e3c7 27be
000001c0: a5f5 d8be 74e8 21b9 b3c4 23bc 115c 65be
000001d0: 9c34 acbd 5c97 fc3d 7a52 36be c8ef e2be
000001e0: 79af b9be 5f2e 993e 6f58 cb3e 7efd 733f
000001f0: bb6e 4c3e a90d dc3e 0017 ccbd 40da 3a3e
00000200: 669f 613e f225 d23d 925f 52be 1080 af3d
00000210: 5457 1b3e 2c59 423f baba 343d b475 92bc
00000220: df6f 1a3d d535 c83e 5bb1 46be f2ca e43d
00000230: 89bc 2d3e 3512 cfbd 8269 4b3d 2cad 3c3e
00000240: 8b29 ebbb fce0 433e 05c0 563e dfda 613c
00000250: b6f4 953e e2e7 5b3e 3434 8b3d aaf7 143d
00000260: a20e ef3e 9f48 5a3e 1df5 9abe 7538 47be
00000270: 9ee2 153e 9327 48be c39f b43e d08e ab3c
00000280: 7bd2 663d 3e7d ebbd 4db3 24bd 207e 8bbd
00000290: a63f d1be 00eb a5bd 13be 203e 0feb 7a3e
000002a0: b08b 243d 1e7d 9ebd 3161 963d 5601 2c3d
000002b0: dd0f 7fbe bfab 4d3d c503 5fbd 93b7 9d3e
000002c0: 9cbe 77bd 7ef8 8fbe 2685 04be f48b 7abd
000002d0: 1955 62be b697 343e 7ed1 893e 7a46 813e
000002e0: ea6a 8bbc 0cf1 ae3e a591 98bd 2ee4 13bd
000002f0: 0d12 8abb 17b7 30be 03b1 9b3e 536b 2bbe
00000300: ed16 473e a902 223e e5e4 fa3d c7d1 ac3e
00000310: 75d8 d93e b940 143e c3ca a1bd eabc 64bd
00000320: 6a22 893d f542 583c bd58 473e eee8 1d3e
00000330: 20f4 f5bb e0c1 823d 605d bb3d fb6e 37bc
00000340: 1be2 523e c14a 883d f3a3 1c3e b31c 363d
00000350: 2388 a33d e466 3cbe 4aab bb3d d51d 113e
00000360: e0cd 353e de24 bfbd f6fd 8a3d 4ee5 6a3d
00000370: b031 5e3c ef40 173c 9e4e c9bc 6a83 123d
00000380: f39a a0be 40b8 b43e 1398 d1bc e97f c1bc
00000390: 6ff7 a7be 0165 c73c c982 b03d 5373 923e
000003a0: bcc4 eebd 6b7e 9f3e 451d c9bd 1762 30bc
000003b0: 5b44 0cbe a731 b03c e31b 8d3d 7e24 15bd
000003c0: b58d 8fbe c807 3d3e 32cb 7c3c 2bf4 16be
000003d0: 773c 7a3c d1db 583e 3b5b 103d d777 9ebc
000003e0: 129e bcbe e8e7 04bf 3ea3 afbd 1368 d93b
000003f0: 8817 2cbd a833 c03e 6714 e83e e875 ef3c

context_transformer_0/kq_shared_bottleneck/norm/mul;context_transformer_0/kq_shared_bottleneck/norm/add;context_transformer_0/attention/key/einsum/Einsum;context_transformer_0/attention/key/add;context_transformer_0/attention/value/einsum/Einsum;context_transformer_0/attention/key/add/ReadVariableOp/resource f4 [32]
0.2372416 0.06739795 0.13388354 -0.23208019 0.32043517 -0.1199397 -0.009255616 -0.16130263
0.47896862 0.0070222644 0.4039764 0.00979303 -0.22057086 0.20808795 0.05581884 -0.55916286
0.18685946 0.013355968 0.33118933 0.24345315 -0.03483956 -0.32547972 0.8521011 -0.2779842
-0.100744754 0.23371506 0.28818 0.25620624 0.28689483 0.318587 -0.14160442 -0.27974927
00000000: 76ef 723e f007 8a3d c418 093e 6ea6 6dbe
00000010: 1410 a43e f2a2 f5bd dea4 17bc 842c 25be
00000020: 603b f53e 061b e63b ffd5 ce3e f272 203c
00000030: 54dd 61be 0215 553e 4ca2 643d 4c25 0fbf
00000040: 1658 3f3e fdd2 5a3c a691 a93e c84b 793e
00000050: edb3 0ebd 47a5 a6be 4c23 5a3f f253 8ebe
00000060: 4453 cebd 0053 6f3e 548c 933e 772d 833e
00000070: e1e3 923e d61d a33e c000 11be 4c3b 8fbe

context_transformer_0/kq_shared_bottleneck/norm/mul;context_transformer_0/kq_shared_bottleneck/norm/add;context_transformer_0/attention/key/einsum/Einsum;context_transformer_0/attention/key/add;context_transformer_0/attention/value/einsum/Einsum;context_transformer_0/attention/key/add/ReadVariableOp/resource1 f4 [32, 32]
0.40992567 -0.19570775 -0.011481999 0.0794789 0.10992942 0.053027995 0.49125382 0.08608526
-0.010854449 0.0022950885 0.09250478 0.174851 -0.118415356 0.3806522 -0.15524216 0.1235315
0.16180207 -0.15524176 0.12628621 0.40832472 0.2616724 -0.21954016 -0.17451975 0.16236748
-0.026379855 -0.13773605 -0.015972015 0.083855286 -0.064986154 0.25691107 -0.10408093 0.18172699
0.108860366 0.22936186 -0.14800885 0.35313427 -0.28292164 -0.31297383 -0.059909116 -0.022488764
0.22256581 -0.33249867 -0.21763952 -0.23230769 -0.15972172 0.2793291 -0.02236776 0.14049292
0.124088116 -0.027524542 0.11896662 -0.026350895 0.18840383 0.13387495 -0.21748182 -0.07947635
0.0041889213 0.2927861 -0.029690623 -0.15844932 0.15498325 0.3083212 -0.46728808 0.41271156
-0.23248573 -0.42917833 0.12082148 -0.19740568 0.4185428 0.1920111 0.06871928 0.1465093
-0.17676973 0.1605002 0.033434853 0.26334244 0.41729352 -0.2838152 -0.40850893 -0.5600365
0.05644225 -0.32614154 -0.0937369 -0.12857573 -0.047926765 -0.32422355 0.086232245 0.00336035
-0.05769078 -0.25479364 0.013998604 0.1222714 0.31969017 -0.3038963 0.483796 -0.43125257
-0.34650683 0.1474048 -0.014053082 -0.16249068 -0.07820987 -0.0067934035 -0.35063362 -0.08570292
0.013296212 -0.06600396 -0.116837665 -0.15080802 0.15086068 -0.4049786 -0.010730561 -0.25663507
-0.19596459 0.13461988 -0.10569818 -0.38466197 -0.17170173 0.20826638 0.20466568 -0.13881335
0.019705875 0.11738423 0.082197316 -0.043714326 -0.005151053 -0.3420014 0.16089499 -0.21327494
0.8599529 0.2029279 -0.14349034 0.06975905 -0.1620304 0.10381532 0.05443927 0.3684219
-0.11466196 -0.01940073 -0.08864844 -0.4193198 0.052118354 0.13638662 -0.0014562553 0.1899273
-0.13152501 0.33577803 0.41422525 0.27981973 0.58256626 -0.011798685 -0.088047035 0.39916572
0.11210294 0.1356284 0.11181303 0.054302063 -0.75226474 0.17838067 -0.03338302 0.07637769
-0.4536666 0.08933186 -0.06617521 -0.21630836 -0.05221907 0.12969466 -0.42781073 -0.19780333
-0.03840325 0.21865669 -0.18820958 -0.1539131 0.10086947 -0.2196924 -0.026168255 -0.17240721
-0.44069305 0.05010459 -0.27022696 -0.32568067 -0.09910084 0.15474789 0.29749236 -0.17447528
0.18836361 0.058444455 0.21297616 0.011646692 0.0339601 -0.08643196 0.02827082 -0.06424535
-0.38356096 0.052443717 -0.24729554 -0.2682992 -0.018530207 0.2296479 -0.5326125 -0.18865295
-0.10196006 0.21503733 -0.34365925 -0.40271387 0.04787012 -0.1845875 -0.31421039 -0.32095006
-0.6966097 0.049161054 -0.33802536 -0.49145088 0.162195 0.21144307 0.4852969 -0.2509398
0.28921846 0.059803113 0.41496858 0.10775376 -0.31157923 0.016670113 0.0021884888 -0.046704102
0.082236014 -0.0031469637 0.32131612 -0.32338938 0.15629062 0.18126683 -0.080372185 0.174904
-0.19716811 0.24802673 0.26405686 0.13600501 0.08033357 -0.4505675 0.6377814 0.31128624
-0.025204565 0.47429237 0.19191897 0.11399278 -0.36740068 -0.007966732 -0.048590127 0.39109138
-0.04632662 -0.26636627 -0.27165285 0.056215093 -0.4088201 -0.54237926 0.5680503 -0.42281127
00000000: c7e1 d13e 9d67 48be ff1e 3cbc d5c5 a23d
00000010: ad22 e13d e233 593d 9f85 fb3e 784d b03d
00000020: dcd6 31bc 3269 163b 2573 bd3d 240c 333e
00000030: c083 f2bd d8e4 c23e cdf7 1ebe 15fe fc3d
00000040: 71af 253e b2f7 1ebe 2c51 013e f00f d13e
00000050: edf9 853e 23cf 60be 4eb5 32be a943 263e
00000060: 911a d8bc ae0a 0dbe bed7 82bc 52bc ab3d
00000070: 7617 85bd d989 833e 6228 d5bd a416 3a3e
00000080: 2ff2 de3d d6dd 6a3e a28f 17be 04ce b43e
00000090: 1bdb 90be 1b3e a0be 4363 75bd 5b3a b8bc
000000a0: 4be8 633e 443d aabe e5dc 5ebe 11e2 6dbe
000000b0: 178e 23be 3904 8f3e 983c b7bc 60dd 0f3e
000000c0: e921 fe3d 267b e1bc c5a4 f33d d5dd d7bc
000000d0: efec 403e 8416 093e 8eb3 5ebe 7fc4 a2bd
000000e0: 3843 893b 0fe8 953e c039 f3bc 8a40 22be
000000f0: eeb3 1e3e 47dc 9d3e 6240 efbe ee4e d33e
00000100: bd10 6ebe 43bd dbbe 4171 f73d b724 4abe
00000110: 3e4b d63e 8f9e 443e b2bc 8c3d 8906 163e
00000120: 2003 35be 2a5a 243e fcf2 083d d2d4 863e
00000130: 7fa7 d53e 3a50 91be 1528 d1be 8d5e 0fbf
00000140: fd2f 673d 06fc a6be 22f9 bfbd 5ba9 03be
00000150: db4e 44bd a100 a6be 889a b03d 5139 5c3b
00000160: 2b4d 6cbd 5074 82be 675a 653c 6e69 fa3d
00000170: 6eae a33e 4c98 9bbe 1cb4 f73e 23cd dcbe
00000180: 5869 b1be 49f1 163e e63e 66bc f563 26be
00000190: 7f2c a0bd 339b debb 4086 b3be 0385 afbd
000001a0: 5bd8 593c 162d 87bd 9648 efbd 6b6d 1abe
000001b0: 397b 1a3e 5b59 cfbe 3ccf 2fbc ac65 83be
000001c0: f1aa 48be cbd9 093e 4a78 d8bd 6af2 c4be
000001d0: 94d2 2fbe c843 553e e193 513e 1625 0ebe
000001e0: 376e a13c 2567 f03d 1157 a83d cb0d 33bd
000001f0: 2aca a8bb cf1a afbe a8c1 243e bf64 5abe
00000200: e025 5c3f 55cc 4f3e 22ef 12be d5dd 8e3d
00000210: 4ceb 25be 209d d43d b6fb 5e3d cca1 bc3e
00000220: e4d3 eabd 48ee 9ebc 508d b5bd 16b1 d6be
00000230: 0e7a 553d efa8 0b3e d2df beba 4d7c 423e
00000240: 7eae 06be 19eb ab3e 5515 d43e 8844 8f3e
00000250: 1023 153f 464f 41bc 0152 b4bd 735f cc3e
00000260: 3a96 e53d 2ce2 0a3e 3bfe e43d d76b 5e3d
00000270: 6c94 40bf 6ca9 363e a2bc 08bd e86b 9c3d
00000280: fd46 e8be 9ff3 b63d de86 87bd f07f 5dbe
00000290: aae3 55bd adce 043e 020a dbbe f58c 4abe
000002a0: ba4c 1dbd 8ae7 5f3e 03ba 40be 659b 1dbe
000002b0: a794 ce3d 0bf7 60be cf5e d6bc 848b 30be
000002c0: 85a2 e1be 783a 4d3d 305b 8abe 9ebf a6be
000002d0: 62f5 cabd 3b76 1e3e eb50 983e a6a9 32be
000002e0: 64e2 403e 7463 6f3d 6c16 5a3e c4d1 3e3c
000002f0: bf19 0b3d 3d03 b1bd 3598 e73c 1193 83bd
00000300: 1a62 c4be 39cf 563d 0b3b 7dbe 835e 89be
00000310: a9cc 97bc d228 6b3e 4b59 08bf 3d2e 41be
00000320: 70d0 d0bd bf32 5c3e 1bf4 afbe 8330 cebe
00000330: 7513 443d 8104 3dbe 2fe0 a0be 9153 a4be
00000340: 0355 32bf 1a5d 493d a911 adbe 739f fbbe
00000350: 7216 263e 8884 583e d678 f83e 2e7b 80be
00000360: 7114 943e 1cf4 743d c376 d43e 01ae dc3d
00000370: 5087 9fbe c38f 883c c06c 0f3b cd4c 3fbd
00000380: 5b6b a83d 4a3d 4ebb 8c83 a43e 4b93 a5be
00000390: a60a 203e 039e 393e 2c9a a4bd 091a 333e
000003a0: 70e6 49be b8fa 7d3e 7632 873e e644 0b3e
000003b0: ed85 a43d c9b0 e6be a445 233f e960 9f3e
000003c0: ce79 cebc 73d6 f23e 6886 443e 0c75 e93d
000003d0: f11b bcbe e586 02bc 7106 47bd 213d c83e
000003e0: fbc0 3dbd 2961 88be 1516 8bbe cc41 663d
000003f0: de50 d1be 5ed9 0abf bf6b 113f b87a d8be

context_transformer_0/kq_shared_bottleneck/norm/mul;context_transformer_0/kq_shared_bottleneck/norm/add;context_transformer_0/attention/query/einsum/Einsum;context_transformer_0/attention/query/add;context_transformer_0/attention/value/einsum/Einsum;context_transformer_0/attention/query/add/ReadVariableOp/resource;context_transformer_0/attention/Mul;context_transformer_0/attention/Mul/y f4 [32]
0.20000769 0.13787073 -0.1002474 -0.21271218 0.076083414 -0.22825272 -0.32491443 -0.0666266
-0.0814023 -0.3042494 -0.12500037 0.3086552 0.043107424 -0.15675841 -0.28318962 0.18537258
0.16349967 -0.010670748 -0.04705346 0.1618075 0.111842975 0.09719176 -0.106488556 0.011527931
0.18923566 0.14517616 0.047729846 -0.14119877 -0.1281503 0.15734378 -0.23559317 0.14504038
00000000: d1ce 4c3e fc2d 0d3e 824e cdbd 39d1 59be
00000010: 9fd1 9b3d 15bb 69be 2f5b a6be 8773 88bd
00000020: 40b6 a6bd 94c6 9bbe 1900 00be 0e08 9e3e
00000030: 6991 303d 4785 20be 3bfe 90be 4fd2 3d3e
00000040: 756c 273e 5cd4 2ebc 21bb 40bd deb0 253e
00000050: ee0d e53d 790c c73d ac16 dabd a6df 3c3c
00000060: fec6 413e 0fa9 143e 5f80 433d 6996 10be
00000070: d539 03be ba1e 213e 563f 71be 7785 143e

context_transformer_0/kq_shared_bottleneck/norm/mul;context_transformer_0/kq_shared_bottleneck/norm/add;context_transformer_0/attention/query/einsum/Einsum;context_transformer_0/attention/query/add;context_transformer_0/attention/value/einsum/Einsum;context_transformer_0/attention/query/add/ReadVariableOp/resource;context_transformer_0/attention/Mul;context_transformer_0/attention/Mul/y1 f4 [32, 32]
0.06320009 -0.016980909 0.008045209 -0.05233839 0.043543093 0.047452167 0.02306179 0.054247886
-0.046248104 0.051066265 0.034371883 0.012426078 0.07533848 0.10796677 -0.055988636 -0.1807513
0.04329049 -0.13272776 0.01889067 0.06734701 0.053882692 -0.06470313 0.013656637 0.060820706
0.04474212 -0.078404196 -0.075712465 0.00893499 -0.056528285 0.047642186 0.018583663 0.035742372
-0.07785702 -0.007744814 -0.047462717 0.12824541 0.016784685 -0.011423641 -0.16355027 -0.10557397
-0.043442372 -0.028707825 -0.05257191 -0.18263285 -0.19471577 0.04149566 -0.02224702 0.0077175167
0.109546795 -0.18078628 -0.007871267 -0.054779254 0.112843156 0.070909336 -0.08438833 -0.16288197
0.02196776 -0.024094239 -0.14467216 -0.005523259 -0.06371604 0.056533776 -0.028122004 0.051856127
0.016738622 -0.0010918924 0.012268542 -0.042930353 -0.033660542 -0.034235545 0.2131654 0.12318578
0.092446394 -0.036172822 0.06197583 0.20750876 0.25206986 -0.044970594 -0.15461479 -0.15764372
0.058969434 0.037751783 0.009434127 0.054831326 -0.06910259 -0.17756492 0.0009462684 0.16740449
-0.08279555 0.10315643 0.13610053 -0.03272771 0.35249868 -0.022961706 0.035918817 -0.048885208
-0.05885783 0.035089448 0.009100085 0.016614277 -0.04263111 -0.044225674 0.011029314 -0.040307775
0.05379609 -0.06636139 -0.02971412 0.031106513 -0.050028175 -0.13242702 -0.0067330007 0.14239585
-0.015465655 0.118015 -0.0252347 -0.07827253 -0.026832357 0.06691154 0.0068124305 -0.059838016
-0.06509931 0.08847396 0.1002203 -0.0140250325 0.031525634 -0.0709339 -0.0036939592 -0.03982469
0.24259466 0.11699473 0.036642756 0.032867327 -0.04590433 -0.013421653 0.025574982 0.04266075
-0.0042893845 -0.042112738 0.060398426 -0.06869185 -0.02342279 0.06397887 0.05839532 -0.09442406
0.05332646 -0.030555649 0.059419986 0.0322732 0.10756689 0.13298838 0.044063058 -0.016884537
0.034960415 -0.021115791 -0.22400048 -0.004151838 -0.44340643 -0.028204659 -0.011060887 0.10546889
-0.09030057 -0.003277526 -0.0016935695 -0.026286516 -0.0269784 -0.03571517 0.059380833 -0.082471
0.056586266 -0.010275975 0.0009073439 0.08230934 -0.15071768 -0.03794487 0.010271516 0.16244568
-0.051854018 0.050972886 -0.082131594 -0.05529485 -0.016904578 0.029935302 0.037038516 -0.06513889
-0.051628754 0.027634153 0.097852856 0.008457092 0.019893771 0.02159851 -0.010805632 -0.0073732785
-0.0682408 0.029066566 0.02121163 -0.02440746 -0.065934956 -0.055954803 0.1393441 -0.10552981
0.09010247 -0.030764092 0.05066124 0.088342175 -0.2223938 0.017373279 -0.053365167 0.15312333
-0.050738625 -0.035170518 -0.11152458 -0.09782513 0.014931249 0.1019543 0.08422589 -0.10697471
-0.0943698 0.06248649 0.12145544 -0.00089579565 -0.09768825 0.05146948 0.0013878131 0.013747354
0.16256087 0.07282738 0.089339755 -0.09027149 -0.05279323 -0.00151581 0.015123996 0.13124786
0.00048013526 -0.0051278984 0.032095082 0.08838472 0.21856442 -0.09864719 0.24682444 0.06340088
-0.16933247 0.36852422 0.11495425 0.11745515 -0.16933186 0.011486038 0.017520323 0.1692593
0.05747536 0.02008275 -0.02407717 -0.017646667 -0.09492887 -0.1238807 -0.00061630877 -0.024215555
00000000: 0c6f 813d 8c1b 8bbc 0dd0 033c c860 56bd
00000010: 3e5a 323d 345d 423d 14ec bc3c 0833 5e3d
00000020: a76e 3dbd dc2a 513d 88c9 0c3d c096 4b3c
00000030: 104b 9a3d af1d dd3d 5754 65bd de16 39be
00000040: 5e51 313d c9e9 07be 9bc0 9a3c 3bed 893d
00000050: 19b4 5c3d 1383 84bd 16c0 5f3c 221f 793d
00000060: 8343 373d 6192 a0bd 230f 9bbd 1064 123c
00000070: 348a 67bd 7424 433d c43c 983c 9866 123d
00000080: 8073 9fbd 35c8 fdbb 4468 42bd c452 033e
00000090: 0980 893c 392a 3bbc b979 27be 2a37 d8bd
000000a0: a1f0 31bd ac2c ebbc a555 57bd 1b04 3bbe
000000b0: 9263 47be 5af7 293d 623f b6bc 39e3 fc3b
000000c0: 125a e03d 0a20 39be 7df6 00bc 3660 60bd
000000d0: 501a e73d ea38 913d cad3 acbd 88ca 26be
000000e0: bbf5 b33c 4861 c5bc f024 14be 74fc b4bb
000000f0: 8e7d 82bd f68f 673d 1e60 e6bc 1767 543d
00000100: 6f1f 893c d41d 8fba ff01 493c bdd7 2fbd
00000110: a3df 09bd 923a 0cbd 0848 5a3e d448 fc3d
00000120: 8954 bd3d f429 14bd 5eda 7d3d 2d7d 543e
00000130: 4d0f 813e 1633 38bd 5753 1ebe 5b6d 21be
00000140: ef89 713d 9da1 1a3d 9991 1a3c d096 603d
00000150: a985 8dbd 94d3 35be ff0e 783a 156c 2b3e
00000160: b790 a9bd ae43 d33d f05d 0b3e 7e0d 06bd
00000170: b57a b43e 301a bcbc 9c1f 133d db3b 48bd
00000180: e814 71bd f4b9 0f3d 8618 153c aa1a 883c
00000190: f59d 2ebd fb25 35bd 4cb4 343c c419 25bd
000001a0: 4a59 5c3d 7be8 87bd 076b f3bc 16d3 fe3c
000001b0: 58ea 4cbd f39a 07be 81a0 dcbb 38d0 113e
000001c0: a963 7dbc d9b1 f13d 00b9 cebc 594d a0bd
000001d0: 88cf dbbc eb08 893d cf3a df3b b518 75bd
000001e0: c952 85bd d631 b53d 4d40 cd3d 40c9 65bc
000001f0: 0621 013d cb45 91bd 5a16 72bb 371f 23bd
00000200: bc6a 783e ef9a ef3d b716 163d e49f 063d
00000210: 2e06 3cbd 7ee6 5bbc a082 d13c 0abd 2e3d
00000220: f78d 8cbb 687e 2cbd 5764 773d 50ae 8cbd
00000230: 27e1 bfbc 5b07 833d ee2f 6f3d 6761 c1bd
00000240: d96c 5a3d d74f fabc 5f62 733d e730 043d
00000250: 084c dc3d 1b2e 083e 777b 343d 7151 8abc
00000260: a732 0f3d 06fb acbc 6260 65be 240c 88bb
00000270: 2b06 e3be 750d e7bc b938 35bc 1300 d83d
00000280: 81ef b8bd c3cb 56bb c3fa ddba d256 d7bc
00000290: ce01 ddbc 124a 12bd 5139 733d 8ee6 a8bd
000002a0: 00c7 673d 905c 28bc d2da 6d3a cd91 a83d
000002b0: bc55 1abe 146c 1bbd dc49 283c 2958 263e
000002c0: e164 54bd f2c8 503d 9c34 a8bd da7c 62bd
000002d0: 787b 8abc e13a f53c b3b5 173d 8a67 85bd
000002e0: ac78 53bd 0561 e23c 1467 c83d 9d8f 0a3c
000002f0: 43f8 a23c 5cef b03c 1b0a 31bc 8b9b f1bb
00000300: d5c1 8bbd 021d ee3c 03c4 ad3c 27f2 c7bc
00000310: e808 87bd dd30 65bd 38b0 0e3e 0320 d8bd
00000320: a587 b83d fa04 fcbc 2982 4f3d beec b43d
00000330: 33bb 63be 6852 8e3c 6f95 5abd 5dcc 1c3e
00000340: 4ed3 4fbd f60e 10bd 0067 e4bd 8b58 c8bd
00000350: 33a2 743c 6bcd d03d a07e ac3d 8f15 dbbd
00000360: f444 c1bd d5f1 7f3d a1bd f83d d4d3 6aba
00000370: c710 c8bd a9d1 523d 48e7 b53a 953c 613c
00000380: 5b76 263e 8526 953d c3f7 b63d 42e0 b8bd
00000390: b73d 58bd 25ae c6ba a3ca 773c d765 063e
000003a0: aaba fb39 ee07 a8bb 2276 033d 0c03 b53d
000003b0: 5acf 5f3e 8a07 cabd 8cbf 7c3e 52d8 813d
000003c0: 7e65 2dbe 35af bc3e 226d eb3d 538c f03d
000003d0: 5565 2dbe ef2f 3c3c c886 8f3c 4f52 2d3e
000003e0: 486b 6b3d 9484 a43c 7c3d c5bc be8f 90bc
000003f0: 116a c2bd 2ab5 fdbd c88f 21ba b35f c6bc

context_transformer_0/ffn_layer_0/intermediate_dense/einsum/Einsum;context_transformer_0/ffn_layer_0/intermediate_dense/Relu;context_transformer_0/ffn_layer_0/intermediate_dense/add f4 [32]
-0.29886496 -0.16243732 -0.41026074 -0.08078437 -0.15868798 -0.24211532 -0.19714876 -0.34214213
-0.091855876 -0.08787104 -0.15285341 -0.37048104 -0.14298594 -0.29963842 -0.21342374 -0.22463942
-0.36927566 -0.09619993 -0.3015993 -0.2714803 -0.25693002 -0.20288765 -0.1579139 -0.31432018
-0.18621252 -0.009223543 -0.14871995 -0.1755724 -0.27790773 -0.13036038 -0.15614635 -0.29100412
00000000: d404 99be f855 26be b20d d2be 4772 a5bd
00000010: 1a7f 22be 14ed 77be 5de1 49be 412d afbe
00000020: ef1e bcbd bbf5 b3bd 9b85 1cbe b1af bdbe
00000030: e86a 12be 356a 99be c18b 5abe e007 66be
00000040: b311 bdbe 7804 c5bd 396b 9abe 77ff 8abe
00000050: 558c 83be c8c1 4fbe 2eb4 21be 93ee a0be
00000060: 7fae 3ebe 581e 17bc 0b4a 18be 40c9 33be
00000070: ec49 8ebe 317d 05be d4e4 1fbe 7efe 94be

context_transformer_0/attention/norm/mul;context_transformer_0/attention/norm/add;context_transformer_0/ffn_layer_0/intermediate_dense/einsum/Einsum;context_transformer_0/ffn_layer_0/intermediate_dense/Relu;context_transformer_0/ffn_layer_0/intermediate_dense/add f4 [32, 32]
0.012870195 -0.12365407 -0.2093716 -0.07375151 0.2648325 -0.06626781 0.16697519 0.10581273
0.1501199 -0.024249574 0.0772156 0.15511099 0.19135122 -0.029378532 -0.47079712 -0.14700352
-0.027076857 0.31874534 -0.19982104 -0.1974413 0.030038683 -0.15371923 -0.40677592 -0.38552535
-0.22563155 -0.22958116 -0.06045931 0.14912827 0.06554276 -0.18194202 0.017314693 0.03605237
0.19875245 0.12050006 -0.15455514 0.16728854 -0.27298298 -0.091682106 0.08804525 0.020818615
-0.045268353 -0.23648192 0.10397544 -0.15125783 -0.2087809 -0.021460645 -0.20748772 -0.32248947
-0.020250032 0.17360719 -0.08550688 0.2558391 0.025024539 -0.10072175 0.042698693 -0.11865174
0.04274209 0.048932362 -0.04899668 0.19324248 0.10353614 0.19804849 0.11301317 0.03799914
0.16413786 -0.15758203 0.31806937 -0.14772429 -0.043712012 0.013085956 0.12633234 0.12600517
-0.1863287 -0.38263416 0.071604505 -0.23418006 -0.0033662212 -0.15476629 0.31068748 0.049707484
0.19806984 0.122231126 -0.2961729 0.18984409 -0.27072752 0.18992148 0.35806784 0.0045487564
-0.14257433 0.045703284 0.17827617 -0.017481165 -0.19209401 0.17728893 0.18752694 -0.16515048
-0.091611974 -0.07310463 -0.00795488 -0.31401154 0.12464299 -0.11935433 0.09205283 0.10057552
-0.046127245 0.13188748 -0.093411945 0.757216 0.012038735 -0.040125877 -0.3776904 -0.14246233
0.11570063 0.11179157 -0.047663264 -0.05910359 -0.059830274 0.5343431 0.024071215 -0.2652452
-0.13557982 -0.032184385 -0.030835416 -0.027075812 -0.0072962134 0.09901989 -0.246636 -0.22978105
-0.021925876 -0.27158886 0.35697013 -0.076337636 0.061767556 -0.1654775 -0.043759152 0.15243785
0.0026946801 0.20369743 0.063909836 -0.050665256 -0.3354329 -0.12635522 -0.08226019 -0.48161212
0.0018559219 -0.18627262 -0.02869329 0.16889839 -0.2861588 0.11108739 0.24968517 0.07994035
-0.21893875 0.32603222 -0.007916882 0.100651585 0.2750744 -0.35920525 0.11463253 0.12293474
-0.2291131 0.08339541 -0.04658343 -0.16622032 -0.12422904 -0.16841678 0.013349225 0.13427785
-0.022475298 -0.26857337 0.25642946 -0.116313696 0.020890811 -0.06712937 0.28011766 -0.096763514
0.13847566 0.12216995 0.06673379 0.2120528 -0.06554193 -0.040954437 0.4670619 0.0980777
-0.0876109 0.23198257 0.079050966 -0.16205719 0.023991788 -0.06381216 0.5696759 0.14183755
-0.1520106 0.12468723 0.052756757 0.368173 -0.028103853 0.07816347 -0.0022165456 -0.2625468
0.0016894822 0.23146982 0.04885115 0.18157475 0.18868573 0.04011104 -0.22992016 -0.05149231
0.15028551 0.1234388 0.0791692 0.19342273 -0.20714456 0.03457913 0.06320565 -0.4038461
-0.25757745 -0.089854494 -0.18622896 -0.07753141 -9.848475e-05 0.33388883 -0.2568549 0.23906341
-0.16907278 -0.046266858 0.0050228634 0.16833776 0.07342617 0.030945761 0.015802179 -0.2130594
-0.1746396 -0.07785078 -0.21589954 0.044173583 0.20538631 0.03760846 -0.15608767 -0.18125266
-0.07860308 0.12528042 -0.3671164 -0.042561654 0.08160209 -0.14988989 -0.1014556 -0.27201486
0.20170891 0.2007303 0.052727606 0.054560088 -0.14566757 -0.07834806 -0.17472076 0.049795575
00000000: 83dd 523c 583e fdbd 8265 56be 080b 97bd
00000010: 2098 873e 6bb7 87bd 8bfb 2a3e 58b4 d83d
00000020: 08b9 193e 0ba7 c6bc 3623 9e3d 6ad5 1e3e
00000030: 93f1 433e 3fab f0bc 520c f1be 1788 16be
00000040: 49d0 ddbc 9732 a33e e39d 4cbe 0d2e 4abe
00000050: af13 f63c 9368 1dbe ef44 d0be 9463 c5be
00000060: f50b 67be 5317 6bbe 2ea4 77bd 15b5 183e
00000070: 483b 863d 024f 3abe 8bd7 8d3c a6ab 133d
00000080: c385 4b3e bcc8 f63d b443 1ebe b04d 2b3e
00000090: 6dc4 8bbe d4c3 bbbd 1151 b43d cd8b aa3c
000000a0: 4f6b 39bd 5128 72be 13f1 d43d 55e3 1abe
000000b0: a9ca 55be 3cce afbc a977 54be 571d a5be
000000c0: 65e3 a5bc 15c6 313e 3b1e afbd 58fd 823e
000000d0: 4300 cd3c 3447 cebd d3e4 2e3d afff f2bd
000000e0: 5412 2f3d 4d6d 483d beb0 48bd 5be1 453e
000000f0: c10a d43d 39cd 4a3e 7373 e73d fca4 1b3d
00000100: c113 283e 2f5d 21be fdd9 a23e 0945 17be
00000110: 5e0b 33bd 7a66 563c 445d 013e 8007 013e
00000120: f3cc 3ebe a0e8 c3be 62a5 923d e6cc 6fbe
00000130: d29b 5cbb 0e7b 1ebe 6e12 9f3e 139a 4b3d
00000140: d2d2 4a3e 5054 fa3d f9a3 97be 7d66 423e
00000150: cc9c 8abe c77a 423e ab54 b73e bc0d 953b
00000160: 01ff 11be 5e33 3b3d 078e 363e a934 8fbc
00000170: 4bb4 44be 3b8b 353e 1007 403e 351d 29be
00000180: 0f9f bbbd e1b7 95bd 2f55 02bc 1fc6 a0be
00000190: d344 ff3d 0b70 f4bd 3286 bc3d 8afa cd3d
000001a0: ecef 3cbd 830d 073e c34e bfbd e8d8 413f
000001b0: 1d3e 453c 085b 24bd a360 c1be a5e1 11be
000001c0: 74f4 ec3d fbf2 e43d 8e3a 43bd 9b16 72bd
000001d0: 9710 75bd b6ca 083f ff30 c53c 38ce 87be
000001e0: 70d5 0abe c6d3 03bd 8e9a fcbc 18ce ddbc
000001f0: 1315 efbb f1ca ca3d 268e 7cbe b94b 6bbe
00000200: e59d b3bc b20d 8bbe cac4 b63e e856 9cbd
00000210: faff 7c3d ef72 29be cc3c 33bd ab18 1c3e
00000220: 3b99 303b 0f96 503e 29e3 823d 5f86 4fbd
00000230: dcbd abbe 4363 01be 0878 a8bd dd95 f6be
00000240: 6842 f33a 40be 3ebe 310e ebbc b3f3 2c3e
00000250: 6883 92be c981 e33d 78ad 7f3e c4b7 a33d
00000260: 7b31 60be b2ed a63e cfb5 01bc 6b22 ce3d
00000270: 8dd6 8c3e c0e9 b7be 76c4 ea3d 35c5 fb3d
00000280: a09c 6abe 36cb aa3d 44ce 3ebd a935 2abe
00000290: cc6b febd 7375 2cbe b5b6 5a3c 2280 093e
000002a0: 1e1e b8bc 7382 89be b94a 833e e035 eebd
000002b0: 3523 ab3c 207b 89bd 956b 8f3e f32b c6bd
000002c0: 90cc 0d3e 3d34 fa3d baab 883d 5f24 593e
000002d0: d93a 86bd d7bf 27bd bd22 ef3e f6dc c83d
000002e0: 586d b3bd d78c 6d3e 79e5 a13d 52f2 25be
000002f0: 6d8a c43c f3af 82bd 48d6 113f dd3d 113e
00000300: aba8 1bbe 055c ff3d 7817 583d 2c81 bc3e
00000310: 0d3a e6bc 2b14 a03d 7743 11bb 896c 86be
00000320: 9e71 dd3a 6d06 6d3e 2518 483d bbee 393e
00000330: d536 413e 794b 243d 3170 6bbe 9ae9 52bd
00000340: 72e4 193e 7bcd fc3d 7623 a23d 9c10 463e
00000350: b41d 54be d9a2 0d3d f771 813d ebc4 cebe
00000360: 31e1 83be a205 b8bd ceb2 3ebe cac8 9ebd
00000370: 9989 ceb8 7af3 aa3e 7c82 83be 0acd 743e
00000380: 6a21 2dbe 5182 3dbd d596 a43b bc60 2c3e
00000390: 7660 963d f781 fd3c 9273 813c 3e2c 5abe
000003a0: b9d4 32be 3b70 9fbd c514 5dbe 5cef 343d
000003b0: ca50 523e 540b 1a3d 72d5 1fbe 4c9a 39be
000003c0: a7fa a0bd 8349 003e aef6 bbbe 2155 2ebd
000003d0: ff1e a73d bc7c 19be f4c7 cfbd 8845 8bbe
000003e0: c88c 4e3e 3e8c 4d3e e7f8 573d 667a 5f3d
000003f0: e129 15be f374 a0bd 00ea 32be 72f6 4b3d

context_transformer_0/ffn_layer_1/intermediate_dense/einsum/Einsum;context_transformer_0/ffn_layer_1/intermediate_dense/Relu;context_transformer_0/ffn_layer_1/intermediate_dense/add f4 [32]
-0.0032502103 -0.2440233 -0.18865742 -0.078243256 -0.15198386 -0.31103134 -0.088040315 -0.020880997
-0.24398422 0.0014120043 -0.1590675 -0.0031465571 -0.3084133 0.020231793 -0.24363406 -0.20528574
-0.06503862 -0.12281849 -0.12088208 -0.2479776 -0.060614824 0.06552897 -0.15181911 -0.16691718
-0.19980553 -0.32125068 -0.27446574 -0.24907777 -0.12578617 -0.15583798 -0.07078272 0.0075900108
00000000: 7b01 55bb 3ee1 79be 692f 41be 003e a0bd
00000010: a8a1 1bbe 803f 9fbe 7b4e b4bd a00e abbc
00000020: 00d7 79be 0113 b93a 97e2 22be 7836 4ebb
00000030: 59e8 9dbe 25bd a53c 357b 79be 6d36 52be
00000040: f832 85bd 4388 fbbd 0691 f7bd d7ed 7dbe
00000050: 4047 78bd 0d34 863d 7876 1bbe 56ec 2abe
00000060: d299 4cbe f87a a4be c686 8cbe 3e0e 7fbe
00000070: 17ce 00be fe93 1fbe 88f6 90bd a0b5 f83b

context_transformer_0/ffn_layer_0/norm/mul;context_transformer_0/ffn_layer_0/norm/add;context_transformer_0/ffn_layer_1/intermediate_dense/einsum/Einsum;context_transformer_0/ffn_layer_1/intermediate_dense/Relu;context_transformer_0/ffn_layer_1/intermediate_dense/add f4 [32, 32]
0.56840414 0.35173544 -0.47366345 0.04567705 -0.398761 -0.2212086 0.10382565 0.10234468
-0.21108335 -0.15673663 -0.12566142 0.17087713 0.012461561 -0.3371968 -0.18433493 -0.15080218
-0.23038614 -0.018068751 -0.34522992 0.07035761 -0.2761448 0.09471128 -0.23941666 0.0147732375
0.07020693 -0.23436208 0.1782757 0.026720284 -0.047408197 0.100086875 0.0030144288 0.024491508
0.21609317 0.052328866 -0.01996275 0.032726157 0.031436436 0.53780127 -0.009506005 -0.072985865
-0.1554365 0.086088315 -0.352426 0.1517193 0.39901718 0.0837702 0.059484135 0.015670864
-0.18293034 0.119945586 -0.16523665 0.3409891 -0.2193661 0.0134124765 0.24573112 0.016450536
-0.1482646 -0.16664343 -0.13732262 0.1379304 -0.12599142 0.27401868 -0.46275032 -0.074232444
0.26088575 -0.07975942 -0.018422795 0.06948329 -0.21331233 0.037015345 -0.2761002 -0.38993546
-0.11748495 -0.49394846 0.0029319348 -0.011310245 -0.43479457 -0.06295877 -0.02172178 0.2916395
-0.35024017 -0.052106693 0.056034513 -0.20645529 0.1448695 -0.037044805 -0.1831034 -0.06423387
0.23665446 0.024825446 -0.092165776 -0.14730689 -0.049104523 0.059040885 0.2558616 0.079769745
-0.0074939164 0.030845227 0.07015603 0.09476405 0.09795302 -0.096474275 -0.12300087 0.105407715
0.047207184 -0.10805639 -0.12757663 -0.2358435 0.07263578 -0.114884466 -0.033154093 0.06536888
0.16128168 0.11794038 -0.008003099 0.03169385 -0.0883037 0.045148637 -0.62868154 0.23775674
-0.23412679 0.002621935 -0.24755637 -0.023745542 -0.2980062 -0.122098625 -0.0052084927 0.008619202
-0.10114827 -0.15694563 0.23603745 0.044208027 0.07554664 0.22537391 -0.06979146 -0.62569296
0.028719971 -0.15717642 0.07254963 0.002089699 0.035236143 0.042091686 0.10717613 -0.020272972
-0.25799796 0.09980919 0.3526694 0.11094333 0.0059385765 -0.0192027 0.15372863 -0.29031628
0.043582663 0.0014874048 0.37106347 -0.07453642 -0.089172155 -0.13072181 -0.04965029 -0.07807092
-0.1652394 -0.057676177 0.32574582 -0.2205759 -0.049793933 -0.17106286 0.040024567 -0.33304206
-0.094344184 -0.059384253 -0.036297742 -0.20047313 0.13330513 0.028497674 0.060579967 0.26510778
0.110493444 0.19117609 0.10557495 0.011327417 0.1423269 -0.2449119 -0.08449778 0.035167407
-0.045766935 0.0680579 -0.1971039 -0.20918517 0.09338116 0.07966773 0.0773653 0.05483726
-0.030500568 -0.24058992 -0.5224379 0.0041581155 -0.26911467 0.094148345 -0.07966033 -0.1641235
-0.11087809 0.06453387 -0.15293092 0.32814524 -0.19301301 0.11059282 0.033004034 -0.06914184
0.25488892 -0.12591696 -0.059743185 -0.06271801 -0.204693 -0.23130871 -0.10089935 0.21034738
-0.20378818 -0.16478966 0.15288514 0.10783476 0.4372746 0.119346805 0.07153949 0.31868282
0.09180418 0.054277044 0.23075172 0.13625358 -0.19163522 -0.062578075 -0.080585845 -0.12038294
-0.30729744 -0.2498882 -0.14994586 0.15976018 -0.054719046 -0.12479209 -0.07264574 -0.16633654
0.019788504 0.31255168 -0.22421378 -0.2792822 0.22427057 0.0966128 -0.17088145 0.0139190275
0.3014988 0.13221891 -0.09652448 -0.027615521 -0.091057345 0.15948391 0.21080989 -0.14448123
00000000: ef82 113f ab16 b43e 0484 f2be dc17 3b3d
00000010: 672a ccbe 8284 62be 8ba2 d43d 169a d13d
00000020: 3c26 58be 917f 20be 63ad 00be 6afa 2e3e
00000030: 932b 4c3c 0fa5 acbe 4cc2 3cbe e36b 1abe
00000040: 58ea 6bbe eb04 94bc fac1 b0be a717 903d
00000050: da62 8dbe fdf7 c13d a429 75be 730b 723c
00000060: a7c8 8f3d 9dfc 6fbe e88d 363e 7fe4 da3c
00000070: 192f 42bd 59fa cc3d b98d 453b 6aa2 c83c
00000080: 8747 5d3e cb56 563d ec88 a3bc dd0b 063d
00000090: 7ec3 003d 58ad 093f 13bf 1bbc 9d79 95bd
000000a0: bf2a 1fbe 124f b03d 2e71 b4be 4e5c 1b3e
000000b0: fb4b cc3e b68f ab3d a3a5 733d 2f60 803c
000000c0: 1752 3bbe 08a6 f53d cc33 29be 2096 ae3e
000000d0: 82a1 60be 01c0 5b3c f0a0 7b3e 46c3 863c
000000e0: add2 17be 93a4 2abe 4d9e 0cbe a03d 0d3e
000000f0: e503 01be 2d4c 8c3e 9ced ecbe 2e07 98bd
00000100: d192 853e e858 a3bd 67eb 96bc 414d 8e3d
00000110: 8c6e 5abe 679d 173d 015d 8dbe 9fa5 c7be
00000120: f39b f0bd d0e6 fcbe b425 403b 9b4e 39bc
00000130: 659d debe 87f0 80bd e0f1 b1bc c651 953e
00000140: ae52 b3be d46d 55bd 7284 653d 0469 53be
00000150: ac58 143e 4bbc 17bd 757f 3bbe 0c8d 83bd
00000160: 8c55 723e bc5e cb3c 69c1 bcbd 9ed7 16be
00000170: d321 49bd dbd4 713d 4b00 833e 525e a33d
00000180: 878f f5bb 21af fc3c f7ad 8f3d a713 c23d
00000190: 989b c83d 4e94 c5bd e1e7 fbbd 00e0 d73d
000001a0: 525c 413d ab4c ddbd 73a3 02be f580 71be
000001b0: 11c2 943d 8c48 ebbd 96cc 07bd 1fe0 853d
000001c0: 0627 253e ba8a f13d 6e1f 03bc 69d1 013d
000001d0: 92d8 b4bd c7ed 383d 46f1 20bf 8176 733e
000001e0: efbe 6fbe c5d4 2b3b 6b7f 7dbe 0386 c2bc
000001f0: 4594 98be d80e fabd 01ac aabb 8e37 0d3c
00000200: d326 cfbd 5bb6 20be cdb3 713e 7a13 353d
00000210: 32b8 9a3d 6bc8 663e d3ee 8ebd 6a2d 20bf
00000220: 2546 eb3c dbf2 20be e794 943d 55f3 083b
00000230: c653 103d 5568 2c3d 297f db3d 8113 a6bc
00000240: 4f18 84be c368 cc3d 1591 b43e 4236 e33d
00000250: 6498 c23b fb4e 9dbc 0a6b 1d3e 56a4 94be
00000260: bc83 323d 06f5 c23a 08fc bd3e 8da6 98bd
00000270: e49f b6bd f0db 05be 1a5e 4bbd a6e3 9fbd
00000280: 8434 29be db3d 6cbd 28c8 a63e a6de 61be
00000290: b9f4 4bbd 1a2b 2fbe cdf0 233d 7d84 aabe
000002a0: 8637 c1bd e73c 73bd f1ac 14bd d448 4dbe
000002b0: 2481 083e f473 e93c b322 783d 35bc 873e
000002c0: 634a e23d aac3 433e ae37 d83d a196 393c
000002d0: 25be 113e 2fca 7abe 2c0d adbd b30b 103d
000002e0: 1c76 3bbd f161 8b3d 9bd5 49be a334 56be
000002f0: 9f3e bf3d d628 a33d b371 9e3d 099d 603d
00000300: 54dc f9bc 345d 76be 7dbe 05bf cd40 883b
00000310: 66c9 89be d9d0 c03d f524 a3bd fe0f 28be
00000320: 0d14 e3bd 552a 843d ec99 1cbe a702 a83e
00000330: 34a5 45be 7d7e e23d 3d2f 073d 3d9a 8dbd
00000340: cd80 823e 60f0 00be 45b5 74bd 4d72 80bd
00000350: 0b9b 51be 31dc 6cbe 52a4 cebd 4e65 573e
00000360: d9ad 50be 9fbe 28be ec8d 1c3e 78d8 dc3d
00000370: 75e2 df3e 196c f43d 4c83 923d 652a a33e
00000380: d403 bc3d 9b51 5e3d 2e4a 6c3e 0f86 0b3e
00000390: 063c 44be ef28 80bd 310a a5bd 558b f6bd
000003a0: 1756 9dbe b1e2 7fbe 688b 19be 2c98 233e
000003b0: 1421 60bd ff92 ffbd 4ac7 94bd 2054 2abe
000003c0: 801b a23c c606 a03e 4c98 65be 14fe 8ebe
000003d0: 2fa7 653e efdc c53d 8cfb 2ebe a20c 643c
000003e0: 0d5e 9a3e 6564 073e a0ae c5bd f239 e2bc
000003f0: 467c babd c04f 233e 8cde 573e e3f2 13be

context_transformer_0/ffn_layer_2/intermediate_dense/einsum/Einsum;context_transformer_0/ffn_layer_2/intermediate_dense/Relu;context_transformer_0/ffn_layer_2/intermediate_dense/add f4 [32]
-0.110334136 -0.36320582 -0.22128052 -0.25442904 -0.31119522 -0.32972848 -0.20709182 -0.24355197
0.050189678 -0.20100136 -0.31652647 -0.16458379 -0.1398074 -0.25989696 -0.17144842 -0.27963126
0.062271908 -0.16008113 0.0759374 -0.17579278 0.04242625 -0.107642144 -0.23242834 -0.039333742
-0.20240217 -0.05830954 -0.24791272 -0.2130387 -0.027178355 -0.17626908 -0.22497076 -0.040677644
00000000: ddf6 e1bd 1df6 b9be 5c97 62be 8644 82be
00000010: fb54 9fbe 2cd2 a8be e10f 54be b065 79be
00000020: b193 4d3d 4dd3 4dbe c20f a2be a788 28be
00000030: ac29 0fbe 3711 85be 2d90 2fbe d42b 8fbe
00000040: d410 7f3d 4fec 23be 1185 9b3d 0603 34be
00000050: 26c7 2d3d 7c73 dcbd b201 6ebe 6b1c 21bd
00000060: 8442 4fbe fcd5 6ebd d5dc 7dbe d126 5abe
00000070: 24a5 debc e27f 34be bc5e 66be 9a9d 26bd

context_transformer_0/ffn_layer_1/norm/mul;context_transformer_0/ffn_layer_1/norm/add;context_transformer_0/ffn_layer_2/intermediate_dense/einsum/Einsum;context_transformer_0/ffn_layer_2/intermediate_dense/Relu;context_transformer_0/ffn_layer_2/intermediate_dense/add f4 [32, 32]
0.025062587 0.010732673 -0.022965698 -0.0058925156 0.00873132 0.012533565 -0.008014323 -0.0045810794
-0.013962333 -0.008246836 -0.0046878383 -0.019068496 -0.013209893 -0.0072333203 -0.005853922 0.00029792308
-0.030962849 0.010868738 -0.013705776 0.0022258908 0.002876093 -0.002812359 -0.012673382 0.0177551
-0.0035612176 0.002389528 0.008863176 -0.024827745 -0.0051616933 0.0063955304 0.010622285 0.00774133
0.28494048 -0.47738656 -0.15551575 -0.27728415 -0.17886502 0.2900705 0.044509977 0.088415444
-0.32845795 -0.17398189 -0.031387683 -0.2008951 -0.038751476 -0.5538079 0.055295054 -0.06472241
-0.21484438 -0.16089463 -0.2855711 0.024451822 -0.083836235 0.09387518 -0.031485673 -0.20128076
0.06490223 0.013607174 0.19415575 -0.052774187 0.036292423 0.47738618 0.29553616 0.21276434
-0.14819847 0.003522188 -0.182718 -0.07737198 -0.18655945 0.10284718 0.06455009 0.03729887
-0.041111045 -0.23399246 0.06458458 0.35019645 -0.14239715 -0.31133503 -0.17872918 0.18273406
-0.1946882 -0.104814924 -0.0716387 -0.13553561 0.08735275 0.16800249 -0.051921606 0.17522551
0.07440702 -0.049817998 0.032405145 0.38093203 0.10738203 0.13655548 -0.17567788 -0.4380686
0.30133113 0.11835196 -0.29217407 0.08961672 -0.1393567 -0.0010078548 0.13084349 -0.011564925
-0.014834621 0.28868318 -0.07547047 0.14801589 0.13256492 -0.10460426 0.0751953 0.0897084
0.25160107 -0.015456824 0.0851919 0.2240175 -0.16617881 0.14788495 0.011859214 -0.012908414
-0.14874972 0.12792991 0.25769544 -0.3796416 -0.33844325 0.24396527 -0.08909086 0.10909548
0.19836597 -0.25140664 -0.037698653 -0.20322172 0.18785717 -0.23709923 -0.07084025 0.05413709
-0.29071188 -0.11568809 -0.19177154 0.31511587 -0.057701472 -0.21551438 0.10434304 -0.07474543
-0.09385614 0.020303275 -0.27602795 0.011457797 -0.16088332 -0.07246582 0.061804198 -0.28738698
0.17799385 -0.021626499 0.06484554 -0.07023632 0.31058702 -0.082010485 0.33104154 0.07823182
-0.065377414 -0.35509095 -0.3228614 -0.12848824 0.07539606 0.42334062 -0.1015521 -0.055232845
-0.18228918 0.24248387 -0.11289845 0.349196 -0.045562945 0.21021804 -0.05937177 -0.0020400283
-0.060319796 0.018496571 0.113020286 -0.32814476 0.12619944 -0.042723022 -0.067356825 -0.20802239
-0.16714267 -0.09080463 -0.288038 0.12310278 0.24045753 -0.067014895 -0.16204326 0.04376654
0.083535366 0.22291057 -0.36355796 0.07368525 -0.27542257 0.028099908 -0.24860631 -0.15349135
-0.02413525 0.17825224 -0.07816379 -0.053305004 -0.16367655 0.09017761 0.24540196 -0.41230905
-0.10473463 0.12711492 -0.21107793 0.0027868287 -0.059171673 -0.032969397 -0.011621538 -0.06800506
-0.013282167 -0.043619066 0.16370746 0.24848756 0.16223156 0.33742025 -0.05934004 0.23309259
-0.13835724 0.07724762 -0.44496363 0.35296506 0.06624463 0.076410525 -0.14528951 0.03804894
-0.09070997 -0.03675292 -0.07400101 0.29040942 -0.1401993 -0.34263396 -0.1523413 -0.17519417
-0.25051102 -0.0565966 -0.16037871 0.011620365 0.0023499578 -0.042429022 0.012717689 -0.09481413
-0.32917368 -0.10848854 -0.08211735 0.037715085 -0.42664027 -0.005189493 -0.061621793 0.11786547
00000000: 0e50 cd3c 18d8 2f3c 8f22 bcbc 0116 c1bb
00000010: cf0d 0f3c 9559 4d3c 824e 03bc e11c 96bb
00000020: 45c2 64bc bd1d 07bc 709c 99bb 8935 9cbc
00000030: 4f6e 58bc 7d05 edbb 42d2 bfbb 8f32 9c39
00000040: cda5 fdbc cb12 323c 318e 60bc 40e0 113b
00000050: d57c 3c3b 8e4f 38bb 04a4 4fbc 2573 913c
00000060: 5163 69bb a199 1c3b db36 113c 8e63 cbbc
00000070: 6c23 a9bb 9991 d13b 1809 2e3c fcaa fd3b
00000080: b8e3 913e 036c f4be 853f 1fbe 30f8 8dbe
00000090: 6428 37be 1f84 943e 1850 363d 2813 b53d
000000a0: a42b a8be 4f28 32be 5f90 00bd 72b7 4dbe
000000b0: deb9 1ebd 5bc6 0dbf 117d 623d 2f8d 84bd
000000c0: 2a00 5cbe 90c1 24be 6036 92be 304f c83c
000000d0: 55b2 abbd a141 c03d 1ff7 00bd 8b1c 4ebe
000000e0: 76eb 843d a0f0 5e3c c4d0 463e bf29 58bd
000000f0: 5da7 143d f66b f43e 8450 973e e5de 593e
00000100: 57c1 17be 82d4 663b 6d1a 3bbe 3375 9ebd
00000110: 7109 3fbe 8ba1 d23d d632 843d b3c6 183d
00000120: 0e64 28bd b89b 6fbe ec44 843d f34c b33e
00000130: 8fd0 11be 4e67 9fbe c804 37be a31e 3b3e
00000140: 585c 47be 35a9 d6bd 50b7 92bd d9c9 0abe
00000150: 00e6 b23d d808 2c3e c0ab 54bd 516e 333e
00000160: b562 983d f50d 4cbd 42bb 043d 8609 c33e
00000170: 1ceb db3d 33d5 0b3e e7e4 33be 874a e0be
00000180: 1348 9a3e 8362 f23d d797 95be f988 b73d
00000190: 86b3 0ebe ff19 84ba d6fb 053e d07a 3dbc
000001a0: e90c 73bc 48ce 933e 4390 9abd 7a91 173e
000001b0: 19bf 073e c23a d6bd feff 993d 0ab9 b73d
000001c0: dbd1 803e 9e3e 7dbc 1779 ae3d d864 653e
000001d0: c72a 2abe 276f 173e 264d 423c d07d 53bc
000001e0: d951 18be 0f00 033e a8f0 833e 6260 c2be
000001f0: 6f48 adbe 08d2 793e 4575 b6bd 736d df3d
00000200: 7320 4b3e 5fb8 80be e769 1abd 5b19 50be
00000210: a15d 403e 24ca 72be b114 91bd dabe 5d3d
00000220: 30d8 94be e1ed ecbd c25f 44be de56 a13e
00000230: 6158 6cbd cdaf 5cbe ceb1 d53d 2214 99bd
00000240: a637 c0bd 0e53 a63c 8953 8dbe 7cb9 3b3c
00000250: 99be 24be f668 94bd 6626 7d3d 6324 93be
00000260: 0544 363e 0e2a b1bc bdcd 843d 0fd8 8fbd
00000270: 4305 9f3e 1df5 a7bd 477e a93e 0138 a03d
00000280: 98e4 85bd 7bce b5be 174e a5be 6c92 03be
00000290: 4069 9a3d 1ac0 d83e 8cfa cfbd d63b 62bd
000002a0: 04aa 3abe b14d 783e 4d37 e7bd d1c9 b23e
000002b0: 36a0 3abd 6643 573e d02f 73bd ffb1 05bb
000002c0: e411 77bd 1f86 973c 2e77 e73d 9702 a8be
000002d0: 6d3a 013e 56fe 2ebd 60f2 89bd d203 55be
000002e0: 7327 2bbe c7f7 b9bd b779 93be 4f1d fc3d
000002f0: 803a 763e 1b3f 89bd abee 25be 8b44 333d
00000300: 9714 ab3d ab42 643e 4524 babe 4be8 963d
00000310: 3004 8dbe c731 e63c a792 7ebe d62c 1dbe
00000320: 4ab7 c5bc c187 363e 5614 a0bd 5956 5abd
00000330: d39a 27be 0aaf b83d a74a 7b3e 2c1a d3be
00000340: 1c7f d6bd 6a2a 023e d024 58be 3aa3 363b
00000350: ff5d 72bd eb0a 07bd 4368 3ebc 3d46 8bbd
00000360: 729d 59bc e8a9 32bd eea2 273e 8673 7e3e
00000370: 0820 263e 59c2 ac3e 8b0e 73bd d3af 6e3e
00000380: 85ad 0dbe 0034 9e3d 46d2 e3be d6b7 b43e
00000390: 44ab 873d 1f7d 9c3d c6c6 14be 35d9 1b3d
000003a0: 26c6 b9bd 3b8a 16bd d78d 97bd 8bb0 943e
000003b0: 6890 0fbe b86d afbe 5cff 1bbe 1a66 33be
000003c0: fb42 80be d6d1 67bd 513a 24be 5863 3e3c
000003d0: c001 1a3b 0eca 2dbd db5d 503c e92d c2bd
000003e0: 7489 a8be 3d2f debd 242d a8bd 227b 1a3d
000003f0: 9870 dabe 9f0c aabb 2267 7cbd 7463 f13d

context_transformer_0/ffn_layer_3/intermediate_dense/einsum/Einsum;context_transformer_0/ffn_layer_3/intermediate_dense/Relu;context_transformer_0/ffn_layer_3/intermediate_dense/add f4 [32]
-0.13864997 -0.012243086 -0.33850172 0.02111088 -0.09975895 -0.27233028 -0.12251277 -0.08849402
-0.39869836 -0.077071205 -0.27846387 -0.09952884 -0.14175439 -0.28994784 -0.23941505 -0.20853812
-0.25182682 -0.13340786 0.068273924 -0.13282496 -0.32002762 -0.23300871 -0.18760262 -0.16903253
-0.19113794 -0.15357167 -0.14280172 -0.07974406 -0.1655521 -0.16747555 -0.04947692 -0.1030349
00000000: 42fa 0dbe 3997 48bc 1950 adbe b9f0 ac3c
00000010: 6c4e ccbd e06e 8bbe fae7 fabd 5a3c b5bd
00000020: 3122 ccbe 82d7 9dbd d192 8ebe c7d5 cbbd
00000030: 1028 11be 0b74 94be 3829 75be 048b 55be
00000040: 72ef 80be 129c 08be 33d3 8b3d 4403 08be
00000050: a9da a3be d699 6ebe e71a 40be dd16 2dbe
00000060: aab9 43be e441 1dbe 9d3a 12be db50 a3bd
00000070: 7d86 29be b67e 2bbe 50a8 4abd f603 d3bd
