packages/apps/composer-extension/.profiles/chromium/Default/optimization_guide_prediction_model_downloads/7350eb25-68cf-4367-b6c5-f792ccbd9d8a/model.tflite (tflite, 67216 bytes, 5 tensors)

dnn/hiddenlayer_1/bias/part_0 f4 [64]
00000000: d138 67bc 0ce1 55bc 120e 44bd 08a3 a33d
00000010: d32e 93b8 456d bbbc d1ff 013c 3c19 2bbc
00000020: e823 453c 7cf5 683d 4a6f 86bc 67fa 923c
00000030: 5526 9cbc 917f 0bbd dcd3 92bc d0a2 78bd
00000040: da09 a43d 1913 81bc 5716 6e3c 2c19 f6bc
00000050: 07d4 713c 7203 b6bc 0965 63bd d9a6 633d
00000060: 3af1 483c f512 0e3b 3b32 183e 6b1b 61bd
00000070: 9251 b2bb 7445 f5bc 1cbe d7bc b300 dbbc
00000080: 4c3d 11bc 8785 9ebb d082 81bd 106c bfbd
00000090: d3fb afbc 7a74 4ebc 01cb 77ba cb87 da3c
000000a0: 5805 28bd 1638 f5ba c05f b7bb 24a6 6f3d
000000b0: a91c aebd ff7c dbbc ca06 a03c 1e7b b63d
000000c0: f636 02bb 84aa 8dbd ff9d 543d 2d6d ab3c
000000d0: ca65 4b3b efc9 01bb 6f72 a9bc 9a99 15bd
000000e0: 97cb 9a3c f262 b23b 7c91 43bd 6256 113d
000000f0: 6d98 1fbc 0801 693d d2a3 55bc 342a 57bd
-0.014112667 -0.013054144 -0.04786498 0.0799008 -7.018228e-05 -0.022879252 0.007934527 -0.010443028
0.0120324865 0.056874737 -0.016410489 0.017941667 -0.019061247 -0.034057204 -0.017923288 -0.060702145
0.080096915 -0.015756177 0.014531693 -0.0300413 0.014760024 -0.02221844 -0.055516277 0.05557904
0.012264544 0.002167878 0.14862911 -0.05495779 -0.005441853 -0.029940344 -0.026335768 -0.026733732
-0.008864712 -0.004837695 -0.06323779 -0.09346783 -0.021482384 -0.012601012 -0.0009452552 0.02667608
-0.04102072 -0.0018708732 -0.005596131 0.058508053 -0.0850156 -0.026793001 0.019534487 0.089102015
-0.0019869185 -0.06917289 0.05190849 0.020926083 0.0031036013 -0.00198042 -0.020684449 -0.03652344
0.018895907 0.005443924 -0.047746167 0.03548277 -0.009740931 0.05688575 -0.013039546 -0.052530482

dnn/hiddenlayer_0/bias/part_0 f4 [128]
00000000: 8c23 5e3d 0ba2 28be 7366 a5bc 87bf 5dbd
00000010: 172e 773c 8367 c1bd 6172 b6bb c151 a1bc
00000020: d73c 9fbd a9b1 54bd 8976 a0bb 9efc 073b
00000030: 6b85 b63d 5820 d53b 0625 24bd 6ee3 53be
00000040: 8414 423d e74f dc3b 6fff bebc 9b76 963c
00000050: 2d6f b7bb 96c3 c7bc 9c16 0b3d fc57 23bc
00000060: e64e 8c3b 0a19 c7bc 6c35 6c3d 8cdf 89bc
00000070: a598 8b3d 85c4 23bc eb36 503b 737c 8139
00000080: 3c68 633a 182e 2dbd b988 94bc 8e62 b0bd
00000090: 4966 abbc 4aa5 1f3c b167 e8bc 1691 b33c
000000a0: 9ef6 e6bd 0490 c23d 2888 a83d a180 a33b
000000b0: 17e7 6fbd 3e91 613d e21c 263d bbde bc3d
000000c0: 92ca a2bd bb87 ec3c 869a fd3c a91a cbbc
000000d0: 4545 2b3d 8ec9 cd3c 8917 5a3d 63dd 493c
000000e0: 7ae9 2e3d d8d6 67bd 2563 7d3d b1e0 573d
000000f0: 4889 96bc a033 4d3b 57e9 723d 7ad2 aebd
00000100: e2c9 963a 509a 3f3d 2820 3ebd 3fb9 c1bb
00000110: f9f1 66bb f34c e4bc 0bc6 db3c be3f 21bc
00000120: 7c20 46bc 06c8 aeba ffe6 a0bd d044 65bd
00000130: 24fb 2cbd 93b6 2cbc 5c13 4d3d 3c10 eb3c
00000140: c5e7 ae3b 86ed b1bc f19b 113c 60aa 9fbd
00000150: e1f6 1ebe 6d69 dbbd b1b3 623c 7033 83bc
00000160: dffd a63d bb33 813b 63b7 743c bc51 fabb
00000170: f1ea b73c 62e7 3c3d b9d4 933d fee2 81bd
00000180: 9db3 d33c 1891 523d 7be8 953d 252c 49bd
00000190: 081f 55bd 0b84 be3a cb31 3ebd cc7e 13be
000001a0: 39c6 fdbd e0a5 dfbc eadc 3abd ffc9 2b3c
000001b0: fa7a 8cbd 3829 9bbc 5d49 5d3d 17b3 9a3b
000001c0: c163 78bd 649c cb3c 8416 bc3c 1252 723d
000001d0: 8932 98bc 64ae b03b a989 c83b a4db cc3c
000001e0: 070f 173c 646a 36bd 0598 e33b 5efe 833d
000001f0: ed61 1a3d e3dc 2bbd e1ef 5cbb ba25 31be
0.05423312 -0.16468064 -0.020190453 -0.054137733 0.015086672 -0.094435714 -0.0055678342 -0.019692304
-0.07775276 -0.051927242 -0.004896943 0.0020749937 0.08912166 0.0065041 -0.04007437 -0.20692226
0.047382846 0.0067233923 -0.02331516 0.018367102 -0.00559797 -0.024385255 0.03395711 -0.009969708
0.0042818664 -0.024303932 0.057668135 -0.016830228 0.06816224 -0.009995584 0.0031771015 0.0002469752
0.0008674895 -0.042280287 -0.0181316 -0.08612548 -0.020922797 0.009743998 -0.028369756 0.021919768
-0.11277507 0.09500125 0.08229095 0.004989699 -0.058569994 0.055070154 0.04055489 0.0922217
-0.079487935 0.028873315 0.030957472 -0.024792986 0.041814107 0.025120523 0.0532451 0.012320849
0.04270313 -0.056601375 0.06186213 0.052704517 -0.018376008 0.0031311288 0.05930456 -0.08536239
0.0011504258 0.046778023 -0.046417385 -0.0059119756 -0.0035239442 -0.027868723 0.026827833 -0.0098418575
-0.012092706 -0.0013334758 -0.07856559 -0.055973828 -0.042231694 -0.010541576 0.05006729 0.028694265
0.0053376877 -0.021719705 0.008887277 -0.07796168 -0.15523864 -0.10713468 0.013836787 -0.016015738
0.08153891 0.0039429343 0.014936301 -0.007639138 0.022450896 0.0461191 0.07218308 -0.063421234
0.025842482 0.051407903 0.07319733 -0.049114365 -0.052031547 0.0014535201 -0.046434205 -0.14403838
-0.123913236 -0.027300775 -0.045620836 0.010485171 -0.068593934 -0.018940553 0.054025043 0.004721056
-0.060642008 0.024854846 0.022959955 0.0591603 -0.018578785 0.0053918827 0.006119926 0.025007077
0.009219891 -0.044535056 0.0069456124 0.06445001 0.037691046 -0.0419587 -0.0033712315 -0.17299548

dnn/hiddenlayer_0/MatMul f4 [128, 12]
00000000: e615 ddbc 89fa 1a3e cacf 3c3e 2484 56be
00000010: 8db3 ba3d 5f50 cfbd 0f28 f83d 905e 70bd
00000020: 8333 0f3e a8f3 fcbd 0409 ee3d e235 e33d
00000030: e232 313e 671d 1b3e e6e0 5cbe 6ba6 153e
00000040: 7888 9fbd 9add 87bd aefd 69be 69a4 93bd
00000050: cefe db3d 83be 883b bb4e dbbd 5bc5 b73d
00000060: c7f6 fa3b 6e59 0fbd 542a fdbd 5e09 fb3d
00000070: 1486 493c eaca cfbd 7f10 0b3e f20d 77bd
00000080: e7ec cb3d d944 013e b898 13be c295 69bd
00000090: 6c69 11bc 8a8c 653e 3857 293d 4489 983d
000000a0: 461c f4bc 73e9 ae3d d48d c93c 3908 a8bd
000000b0: 8c6e 1d3e e46d 523c 7714 02be 12e1 6f3e
000000c0: c4a4 a63d 58d9 523e c071 7c3d 5cdc 02be
000000d0: 0ff1 b5bd d9b7 bbbc 2716 8bbd 8889 483e
000000e0: fd12 3cbe bbf9 c83d 03a3 343e f7d2 a7bd
000000f0: 386d 9d3a 32a0 de3c d08a 78be d860 80bd
00000100: b1bb 8d3d 47c4 9c3d e284 24be c35b 19be
00000110: a44b cfbc d233 97bd 07d3 1ebe de3a 24be
00000120: 39bd 8abd 0a83 2bbe b6d4 aebd 3ace e73c
00000130: c1cd 433e cc84 f33d 7315 2c3e 44db c1bd
00000140: fe0b 0b3e c702 31be 8f23 07be 1078 263d
00000150: c60b b2bd 32af 35be f337 523c 67a0 a0bd
00000160: 6f1f ecbc b3cc 3dbe b246 e3bc eaba dd3d
00000170: 28c2 7bbd 18ad 19be b6ec 59bd 35bb 7ebc
00000180: dc75 bfbd e484 5abe a5bc abbc 5a57 5cbe
00000190: 9f39 50bd e97a d53b b6ce bfbe 9edb 26bd
000001a0: 41a0 bc3d 0b32 4ebd 039b f9bd 71ee b33d
000001b0: 109a 34be a603 183e e533 cebc a900 dabd
000001c0: 04b5 91bd 0b35 3a3c 0c66 1abe fdb6 2e3e
000001d0: eb44 583e 44b7 be3d cb47 8e3d 7762 10be
000001e0: aaa2 a6bd 4278 363e 8df9 34be 711e 65bd
000001f0: 29c0 b7b9 9ae4 133d aa14 893b 19f9 8e3d
00000200: 2a02 dfbd eee8 60bd f0dd 49be db3d 25be
00000210: d097 3bbe f7b6 a43d be96 6fbe 0995 8bbd
00000220: 3cea 40ba 4ce3 953d 78f1 2dbd 6793 9d3d
00000230: 1354 2bbe 6a62 31be a822 fe3c 6496 1e3d
00000240: efab 55bd 9768 06bb f27f d03c 8d0b f73d
00000250: d945 553e 5667 36be 0af3 1cbd f176 3ebe
00000260: 1863 ea3d 2dd3 73be 77c7 0cbe bbef 4f3e
00000270: cf31 363c b50c 603e af2b 173e 2918 c2bd
00000280: 6f52 ae3c 233f dcbc b3a8 4bbe f8b3 9f3c
00000290: 7345 f33d e438 39be 12ee 3d3e a1f5 4d3d
000002a0: be67 bebd 7caf 1fbe 8f0b ae3d 86ba 433e
000002b0: da17 e5bd 335d f23d 7180 07be 9504 09bd
000002c0: df02 c8bd 12f3 4bbd 1918 13be 0985 05be
000002d0: af82 e53d 6e2b 4c3e 61fa 9fbe 6368 643d
000002e0: 33ce 013d 62eb 91bc bcfe 03be 5b77 953d
000002f0: e575 e7bc a463 d03d 5035 413d 1044 493e
00000300: cf93 31be f3c4 1f3d b26c 323e d09a 163e
00000310: cc3a e13d d4fa ecbd 8781 bfbd cc89 c4b9
00000320: 35e7 a03d c560 93be 9e57 023e aa0b 99bd
00000330: 379f 89b9 c55e 883d cb98 a13d 9552 e73d
00000340: e1e8 48be 5e1a b9bd ad7d 623e 758e 64ba
00000350: 3acd 273e 05eb 48bd d5f3 20be 3308 55bd
00000360: f489 ce3d 9985 273e 9ea5 31be 218a e53d
00000370: ca62 b1bc 5688 5ebd 7d1b 53be bb4b e63d
00000380: 24aa 90bd 2777 49bd 2e77 c8bd dc02 9a3d
00000390: 2a88 c9bd ab22 13be bf2b dabd addd 393d
000003a0: 2aa8 e7bd 7797 4cbe 184c 073d 068f 7fbd
000003b0: 113e 61bd 82ca 2d3e b398 5bbe 7979 b0bd
000003c0: 6880 243e cc58 08be 7666 edbd 942d 24be
000003d0: 2057 01be a25c 98bd 47e7 60be 1223 2bbd
000003e0: b2b7 dd3d b3d2 0cbe fec6 b1bd 5480 73bd
000003f0: 95ec 9e3d ec61 3f3d 67be b8be e979 073e
-0.026987981 0.15134634 0.1843864 -0.20948845 0.09116278 -0.101227514 0.121170156 -0.05868393
0.13984494 -0.12351161 0.11622813 0.11094262 0.17304567 0.15147935 -0.21570167 0.14614265
-0.07789701 -0.06634064 -0.22850677 -0.07209093 0.107419595 0.0041731014 -0.10708376 0.089731894
0.0076588127 -0.034997396 -0.12361589 0.12257646 0.012300033 -0.10146125 0.13580512 -0.060316034
0.09957295 0.1262392 -0.14413726 -0.057027586 -0.008875232 0.22416893 0.041342944 0.07448056
-0.029798638 0.08540621 0.024603762 -0.08204693 0.15374202 0.012843583 -0.12703119 0.23425701
0.08136895 0.20590723 0.061631918 -0.12779373 -0.08883869 -0.022914814 -0.067913346 0.19583714
-0.18366618 0.09813257 0.17640309 -0.08194535 0.0012010699 0.027175996 -0.24271703 -0.062684715
0.06920565 0.076546244 -0.16066316 -0.1497641 -0.025304623 -0.07382931 -0.15510188 -0.16038081
-0.067743726 -0.16749206 -0.08536665 0.028296579 0.19121458 0.11890563 0.16805057 -0.0946565
0.13578793 -0.17286216 -0.13197158 0.040641844 -0.08693652 -0.17742613 0.012830722 -0.07843094
-0.028823582 -0.18535118 -0.027743671 0.10826667 -0.06146446 -0.15007436 -0.05320426 -0.015547563
-0.09348652 -0.21339756 -0.020963976 -0.21517697 -0.0508362 0.006514896 -0.37462395 -0.040736787
0.092102535 -0.050340693 -0.12187769 0.087857135 -0.17636895 0.14845142 -0.02517123 -0.10644657
-0.07114604 0.0113651855 -0.1507799 0.17061992 0.2112004 0.09312299 0.06947287 -0.14100061
-0.081364945 0.17819312 -0.17673321 -0.055937234 -0.0003504765 0.036106683 0.0041833716 0.06981105
-0.10889085 -0.05490964 -0.19713569 -0.16136877 -0.1831963 0.0804271 -0.23397347 -0.068155356
-0.00073591224 0.07318744 -0.04246661 0.076941304 -0.1673129 -0.17322698 0.031022385 0.038717642
-0.05216592 -0.0020509118 0.025451634 0.1206275 0.20827426 -0.17812857 -0.038317718 -0.1860006
0.11444682 -0.23811026 -0.13747965 0.20306294 0.011120274 0.21879847 0.14762758 -0.094772644
0.021279542 -0.026885575 -0.19888572 0.019494995 0.11878481 -0.18088108 0.18547848 0.050283078
-0.09297131 -0.15594286 0.084982984 0.19114122 -0.1118619 0.118341826 -0.1323259 -0.033451635
-0.097661726 -0.049792357 -0.14364661 -0.1303903 0.112065665 0.19938442 -0.3124571 0.055763613
0.031690788 -0.017812435 -0.12890142 0.07298156 -0.028254459 0.10175255 0.047169983 0.1965487
-0.17341541 0.039006185 0.17424276 0.14707494 0.10997543 -0.11571279 -0.09350877 -0.000374867
0.07856599 -0.28784767 0.12728736 -0.07472928 -0.000262493 0.06658701 0.07890471 0.11295048
-0.19620086 -0.09038232 0.22118254 -0.00087187375 0.16386881 -0.049052257 -0.15718015 -0.052009773
0.10084906 0.16359557 -0.17348334 0.112079866 -0.021653552 -0.05432924 -0.20615955 0.11244913
-0.07063702 -0.0491859 -0.09788357 0.07520077 -0.09840424 -0.14368694 -0.10652875 0.045377422
-0.113113716 -0.19979654 0.033031553 -0.062392257 -0.05499083 0.16971782 -0.21444969 -0.08616919
0.16064608 -0.13315123 -0.115918085 -0.16033012 -0.12630892 -0.07439543 -0.21963225 -0.041781493
0.10826053 -0.1375225 -0.08680533 -0.059448555 0.07759968 0.046724245 -0.36082765 0.13230099

dnn/hiddenlayer_1/MatMul f4 [64, 128]
00000000: 9d3f 0f3d 7a7e fcba 8303 1e3e 7a71 133e
00000010: 065a dfbd 52d0 34be 3392 ec3d a047 453e
00000020: f5ba 19be ca9c ea3d 814a bdbd 8363 f9bd
00000030: 0feb 423e edfe 20be 2f33 c8bd 3a79 56be
00000040: e1ad 78bd 566f 7ebd 150b e7bc 9e45 2fbe
00000050: e402 36bd c127 163e f995 1f3b 0bf4 13be
00000060: 5c78 2f3e a3bf da3d 2b1a e73d 86fd 9ebd
00000070: 04c2 84bd 61fe 29bd f521 7b3d 6283 113d
00000080: 4010 b4bd a6f2 1b3e 61e5 563c 6e63 2ebd
00000090: 1bfd 063e 72cc f9bd ad49 dbbd 648f 1d3e
000000a0: ef38 c93d b831 6b3d 6fb1 1d3c 09be 543d
000000b0: 4eb7 ff3c 50f4 2fbe be0f 15be 8d59 7b3c
000000c0: d239 48bd 72f5 9abd 9599 c4bd 9c0d 883c
000000d0: 773b f5bd bb83 4a3d 8672 d6bd 774a 6abd
000000e0: 75a0 2ebe 0a18 f7bd 4cc3 593d fc55 1e3d
000000f0: 17d6 a33d 0b1e 8dbd b313 4b3d 55be 72bd
00000100: bad7 d7bd b385 7bbd be44 c4bd fefe 43bd
00000110: 2aef 67bd 5787 1bbe 22e8 abbd b1ec b3bd
00000120: e10c 7bbd ff1a 83bd f808 193e 61e6 493d
00000130: 25a4 2d3e e3ba fd3d f716 e8bd b81d a83d
00000140: 6afb 533d dea1 a2bb 486f b03d 90fd 303e
00000150: d1ea 1c3e 76b8 fdbd fe71 113e 51b4 a23d
00000160: 7050 193e 7b6f 97bd 4f0e 083e adb2 913d
00000170: 23ba 40bd 5d4b 213e dc1f 2a3d 8963 fb3d
00000180: a4bc b9bd 6d33 c8bc 6da9 0b3e 2a7c 4cbc
00000190: 5225 943b 8721 133d 581f 1e3e e3b9 b73c
000001a0: c327 3f3d 45e6 2a3e 56a3 633d bbed ffbc
000001b0: d8ba 55be 6a04 2fbe 6860 8bbd 4d3b 793c
000001c0: e9c3 3f3e a3db 19be ed5d 83bc 3f69 8e3c
000001d0: 117c 80bd 500e 9f3d 24a2 84bd f491 08be
000001e0: a571 d7bd 8d91 53bd f538 203e 011b a7bd
000001f0: ab49 a23d e37d a4bd 4a93 ef3d 125b 833d
00000200: 7b10 2abe 5b55 1b3e 23fc c0bd f13c 813d
00000210: a4c7 633c cb61 153d 9c04 653d cd43 903d
00000220: 43d4 eebc 8b02 2d3d 7eae 3cbe f0c0 c83d
00000230: d85d d2bd 67d6 073e f552 9f3d 8680 06be
00000240: 1782 bc3d df78 1ebe 641a 04be 35fb f4bd
00000250: 2166 08be efa9 1c3e bb04 c03d 8ab8 0fbe
00000260: 7041 da3c b3d3 0f3e 7fd2 05bc f992 adbc
00000270: 3d82 073e c5c5 aa3d ce87 093e 1294 babd
00000280: 8ffa 053e 7c07 08be bd9f ea3d 5f44 38be
00000290: 8510 943d 571a e1bd e4e2 1abe ee8a 15bd
000002a0: 6063 283d d17e b03d 6c44 f9bd e360 3a3e
000002b0: 4587 023e aab7 42bc f533 3bbe 5fa2 c13c
000002c0: ebbf d9bd d23a 1abc b0e5 a8bd 7213 43be
000002d0: 8751 ff3c 6432 1f3e 5c70 ac3d ad3d 1cbe
000002e0: c04b 5bbe b27b 1ebe d99c 10be 4cff 8b3c
000002f0: 7f62 9bbd 5930 3c3e 7d62 1a3e 0bad e5bd
00000300: d7b9 b8bd 29ba 9f3d ae60 dabd 5dfd 8dbd
00000310: b763 cd3d 7c0c c8bc 98d4 57bd 0eb2 393e
00000320: e3f5 b03c 3c05 193d 5338 e0bc 25ee 34bd
00000330: 1add b1bd 94b1 973d 9fd3 25be 575e 5cbd
00000340: c3d1 40bd f4ed ddbd 213b debd 5834 cfbd
00000350: a3c7 5f3d 34aa 023d 8843 c9bd 7cb9 21be
00000360: 01a6 ffbd ef2c 8bbd 2a4f d43b ff97 17be
00000370: 005b bd3c 789c 7ebc 1d21 22bc 75ba 253e
00000380: c08c d9bd 3e50 c83c 8d92 80bd 080d cd3d
00000390: f575 cb3d c3c3 82bb e72f ae3d fb0b 3bbd
000003a0: 7c06 08be a5b7 c93d 0fe3 c7bd 2acf f9bd
000003b0: d46f edbb 8411 ce3d e672 313e 3f79 5dbb
000003c0: 6c7f 003d cd66 b8bc 9152 20be 7c9e 52be
000003d0: 0c83 c4bd 1d59 1fbe ce7c dfbd ddcc 8dbc
000003e0: ebd1 3b3e c24c 653d 75e7 8ebd b88c 29bd
000003f0: ab61 303e 7b57 3c3e 8e70 cc3d 3ee0 1abb
0.034972776 -0.0019263767 0.15431027 0.14398757 -0.109058425 -0.17657593 0.11551323 0.19265604
-0.15012725 0.114556864 -0.09242726 -0.121771835 0.1903498 -0.15722246 -0.097753875 -0.20944682
-0.0607127 -0.062117897 -0.028203527 -0.171164 -0.04443635 0.14663602 0.0024350865 -0.14448564
0.17135757 0.10681083 0.11284288 -0.077631995 -0.06482318 -0.04150236 0.06131168 0.035525687
-0.08792162 0.15229282 0.013116212 -0.042575292 0.1318249 -0.12197198 -0.10707412 0.1538673
0.09825312 0.057420462 0.009624823 0.051939044 0.031215336 -0.17183042 -0.14556786 0.015341175
-0.048883267 -0.07566346 -0.09599606 0.016608052 -0.11974233 0.049442034 -0.10471062 -0.05719992
-0.17053397 -0.12065132 0.053164765 0.03865622 0.07999819 -0.06890496 0.049579334 -0.059263546
-0.105391935 -0.061406802 -0.09583424 -0.0478506 -0.05662457 -0.15188347 -0.08393885 -0.0878538
-0.06129158 -0.064016335 0.14944828 0.049291972 0.16957147 0.123891614 -0.11332505 0.082087934
0.05175344 -0.0049631437 0.08614975 0.17284226 0.1532395 -0.12388699 0.14203641 0.07944549
0.1497209 -0.0739431 0.13286708 0.07114158 -0.047052514 0.15751405 0.04153429 0.12274844
-0.090691835 -0.024438584 0.1363885 -0.012480775 0.0045210505 0.035920646 0.15441644 0.022427505
0.04666878 0.16689403 0.05557569 -0.031241288 -0.20872056 -0.17091528 -0.068054974 0.015211892
0.18727078 -0.15025191 -0.016035998 0.01738417 -0.06273664 0.07766402 -0.06476238 -0.13336927
-0.10519723 -0.05165248 0.15646727 -0.081594475 0.07924207 -0.080318235 0.11698015 0.06413855
-0.1660785 0.1516928 -0.09423091 0.06310452 0.0139025785 0.036470216 0.0559126 0.07044182
-0.029153949 0.042238753 -0.18425938 0.09802425 -0.102718055 0.13265382 0.07779495 -0.13134965
0.092045 -0.15475796 -0.12900692 -0.119619764 -0.13320209 0.152992 0.09375902 -0.1403524
0.026642531 0.140456 -0.008167862 -0.021188246 0.13233276 0.08338503 0.13430712 -0.091102734
0.13083862 -0.13284105 0.11456249 -0.17994832 0.07229713 -0.10991352 -0.15125614 -0.036509447
0.041110396 0.08617938 -0.121712536 0.18201022 0.12746914 -0.011884609 -0.18281539 0.023636995
-0.106323086 -0.009413438 -0.082469344 -0.19050387 0.031166805 0.15546566 0.08419868 -0.15257902
-0.21415615 -0.15476874 -0.14122333 0.017089508 -0.07587146 0.18377818 0.15076633 -0.11214646
-0.09019821 0.07799179 -0.106629714 -0.06933091 0.10028785 -0.024420016 -0.05269298 0.18134329
0.021601623 0.037358508 -0.027370607 -0.044172425 -0.0868475 0.07406917 -0.16194008 -0.053800907
-0.047075044 -0.108364016 -0.10851122 -0.10117406 0.054633748 0.0319006 -0.09827334 -0.15793413
-0.124828346 -0.0679568 0.0064791637 -0.14804076 0.023114681 -0.015540235 -0.00989559 0.16184409
-0.10622549 0.024452325 -0.06277952 0.10012251 0.09934608 -0.003990622 0.085052304 -0.045665722
-0.13283724 0.098494805 -0.09760105 -0.121977165 -0.007245997 0.100619346 0.17328987 -0.0033794192
0.03137152 -0.022509957 -0.15656497 -0.2056827 -0.09595308 -0.15561338 -0.109124765 -0.0173096
0.18341796 0.055981405 -0.06977741 -0.041393965 0.17224757 0.18392746 0.099824056 -0.0023632194

dnn/logits/MatMul f4 [1, 64]
00000000: b329 9abd 940f 18be 2b18 8cbe c965 873e
00000010: 4cd2 7dbe 5aec 493e eb52 bbbd 0b22 683d
00000020: 9729 e1bd cd9c 3d3e 2182 473d e498 973e
00000030: 4427 003d 4fd7 a23e 3252 58be ca61 c7be
00000040: d647 c33e e11c 3abe 6b8d 293e 52fa 213e
00000050: 5e50 c4bc 9027 8cbe 82c0 70be d401 623e
00000060: 4bd0 c8be 21df 60be f533 c23e c90a 67be
00000070: 1ae7 d6bd fcee 763d 114d 5f3e a302 e9be
00000080: 1e13 8c3e 5e59 893e 659e 48be 3d57 203f
00000090: 2c93 0fbe 90f3 d63d 4ae2 573e d655 31be
000000a0: f960 39be b5ce 1abe 0dc9 07be 052c bc3e
000000b0: d798 aebe 7987 623c e5f1 38be aff9 993e
000000c0: 35f9 5d3d 7492 24be 5ecb b33e 7c4f 3f3e
000000d0: 8274 473e 04b1 3ebe 68de 86bd d28c d4be
000000e0: 4db7 8d3e b8b0 6dbe abfe 23be a716 213e
000000f0: 36d8 15be afc1 3c3e 8671 653e 3ff1 97be
-0.07527485 -0.14849693 -0.2736219 0.26444843 -0.24787253 0.19719067 -0.09146675 0.05667309
-0.10994261 0.18516846 0.048708085 0.29608834 0.031287447 0.31804892 -0.21125105 -0.38941795
0.38140744 -0.18175079 0.16557853 0.15818146 -0.023964103 -0.27373934 -0.23510936 0.2207101
-0.39221415 -0.21960117 0.37930265 -0.22562708 -0.10493298 0.060286507 0.21806742 -0.45509824
0.27358335 0.26825994 -0.19591673 0.62633115 -0.14020985 0.104956746 0.21082416 -0.173179
-0.18103398 -0.15117915 -0.13260289 0.36752334 -0.34100983 0.0138262445 -0.18061025 0.30073306
0.05419274 -0.16071492 0.35116094 0.18682665 0.19478038 -0.18622214 -0.065853894 -0.41513687
0.2767891 -0.23211944 -0.16015117 0.15731297 -0.14633259 0.1843326 0.22406587 -0.29676244
